checkpoint_critic.pth (torch_old, 581527 bytes, 9 tensors)

normalizer.weight f4 [24]
0	0x3ee09bfe	0.43869013
1	0x3ed59253	0.417132
2	0x3e8ea1c1	0.27857783
3	0x3e3b8f96	0.18316492
4	0x3f83439e	1.025501
5	0x3f1dfb32	0.6171142
6	0x3dba4c61	0.09096599
7	0xbcb2f47f	-0.0218451
8	0x3ef864a3	0.4851428
9	0x3e067364	0.13129956
10	0x3e5a0a0c	0.21292895
11	0x3e069ca9	0.13145699
12	0x3f0dad49	0.5534254
13	0x3f5b64b1	0.8570052
14	0x3e25da07	0.16196452
15	0x3e76cb47	0.24100982
16	0x3f32957e	0.69759357
17	0x3e3fd914	0.18735152
18	0x3e346121	0.17615177
19	0x3f155b29	0.58342224
20	0xbee75d35	-0.451883
21	0x3f183476	0.5945505
22	0x3e6c8cf4	0.23100644
23	0x3efe3465	0.4964935

normalizer.bias f4 [24]
0	0xbd3a2b9c	-0.045451745
1	0xbd913420	-0.0709002
2	0x3e1487d2	0.14504936
3	0xbdda58f8	-0.10661501
4	0x3d5a7292	0.05333192
5	0xbdf806a4	-0.121106416
6	0xbd831c22	-0.0640185
7	0x3e054d1c	0.13017696
8	0x3d4c4689	0.049871955
9	0xbdc1c222	-0.09460856
10	0x3e1eacc4	0.15495592
11	0xbd95041e	-0.07276176
12	0x3d9ca45e	0.07648538
13	0xbd987717	-0.074445896
14	0x3d427b0c	0.047480628
15	0xbcf28f21	-0.029609265
16	0x3cab45fe	0.020907398
17	0xbcdb5f1d	-0.026778752
18	0x3ddad39c	0.106848925
19	0xbddb6b7b	-0.1071386
20	0xbd3462e8	-0.044039637
21	0xbd25b546	-0.04045608
22	0x3dfa3c71	0.122185595
23	0xbdb8d839	-0.09025616

normalizer.running_mean f4 [24]
0	0xc094e036	-4.6523695
1	0xbf297b7f	-0.66204065
2	0x40e78138	7.234524
3	0x3ebda336	0.37038583
4	0x3d01e6e8	0.03171435
5	0x404ed9a8	3.2320347
6	0x40e78138	7.234524
7	0x3ebda336	0.37038583
8	0xc09f9bf2	-4.9877863
9	0xbf359c4a	-0.70941603
10	0x40fe52c8	7.947605
11	0x3eb828b9	0.3596857
12	0x3ce532c9	0.027978318
13	0x404e7bf8	3.2263165
14	0x40fe52c8	7.947605
15	0x3eb828b9	0.3596857
16	0xc0a96287	-5.2932773
17	0xbf409491	-0.75226694
18	0x410871b4	8.52776
19	0x3e8cff1b	0.2753838
20	0xbc17dc7d	-0.009268877
21	0x4048dce9	3.1384833
22	0x410871b4	8.52776
23	0x3e8cff1b	0.2753838

normalizer.running_var f4 [24]
0	0x418451a1	16.539858
1	0x3f8a731b	1.0816377
2	0x438e181e	284.18842
3	0x40ec818a	7.390813
4	0x421dc985	39.446796
5	0x409cd637	4.9011493
6	0x438e181e	284.18842
7	0x40ec818a	7.390813
8	0x4182cd34	16.350197
9	0x3f8d7d11	1.1053792
10	0x439591c3	299.13876
11	0x40f9bc19	7.804211
12	0x422d12ea	43.26847
13	0x40ad49d4	5.415262
14	0x439591c3	299.13876
15	0x40f9bc19	7.804211
16	0x417ff5d8	15.99752
17	0x3f8f1b0d	1.118013
18	0x439c5270	312.64404
19	0x410e67bf	8.900329
20	0x423b5274	46.83052
21	0x40cd2625	6.4109063
22	0x439c5270	312.64404
23	0x410e67bf	8.900329

layers.0.weight f4 [512, 24]
0	0x3c06b9c1	0.008222998
1	0xbd1dd5f5	-0.038534123
2	0x3bc7c7e3	0.0060968264
3	0x3c174b7b	0.009234305
4	0xbcd9e68b	-0.02659919
5	0x3d37129a	0.044695474
6	0x3b65cbe4	0.0035064155
7	0xbd40acee	-0.04703992
8	0x3d1c3e8e	0.038145594
9	0x3d110594	0.03540571
10	0x3c0cc384	0.008591536
11	0xbc202866	-0.009775257
12	0xbd1f1776	-0.038840733
13	0x3d4a1d2e	0.049344234
14	0x3caf504c	0.021400593
15	0xbd23be19	-0.039976213
16	0x3d211823	0.03932966
17	0x3ae1ba4e	0.0017221661
18	0x3cba76ba	0.022761691
19	0x3c898afa	0.016789902
20	0xbce088ef	-0.027409045
21	0x3d30f59d	0.043202985
22	0x3d821b74	0.063528925
23	0xbcdab52f	-0.026697723
24	0xbd4f2e16	-0.05058106
25	0xbd26ce90	-0.040724337
26	0xbc225a94	-0.009909291
27	0xbca80d73	-0.020514226
28	0xbe3b11c1	-0.18268491
29	0x3cc15479	0.02359985
30	0x3d0730b0	0.033005416
31	0xbd908256	-0.070561096
32	0x3a71f808	0.000923038
33	0x3d097b39	0.03356478
34	0xbc58637c	-0.013207313
35	0xbbc534e6	-0.006018269
36	0xbe1739fd	-0.14768215
37	0x3c339d49	0.010962793
38	0xbc48c700	-0.012254477
39	0xbd3ee655	-0.04660638
40	0xbc94a972	-0.018147204
41	0x3d2964fe	0.04135608
42	0x3c89ef17	0.01683764
43	0xbc7de295	-0.015495916
44	0xbd700e79	-0.058607552
45	0x3d8958f1	0.06706417
46	0xbce42954	-0.027851738
47	0x3bbb872a	0.0057229
48	0xbca95e65	-0.020674894
49	0x3b9e5d01	0.0048328643
50	0x3c379acf	0.011206343
51	0x3ca06125	0.019577572
52	0xbe1088f1	-0.14114739
53	0x3cd3b294	0.025841989
54	0x3c8778e1	0.016537132
55	0x3c26c2a4	0.010178242
56	0x3be467c7	0.006970379
57	0x3c3f7104	0.01168466
58	0xbbfb5405	-0.007669928
59	0x3d3bbd62	0.045834906
60	0xbde49c96	-0.11162679
61	0x3d0cf58e	0.034413867
62	0xbd030e8c	-0.031996295
63	0xbc7d9b3f	-0.015478908
64	0xbd99a555	-0.07502238
65	0x3c419084	0.01181424
66	0xbd6e3791	-0.05815846
67	0x3d0743a8	0.033023506
68	0xbdd59e61	-0.10430599
69	0xbcfd09da	-0.030888487
70	0xbbf9f54e	-0.0076281196
71	0xbc230ec2	-0.009952249
72	0x3a89f2cc	0.001052463
73	0x3d62efed	0.055404592
74	0x3d2fefa1	0.042953137
75	0x3d2d5113	0.042313647
76	0x3bf2be5c	0.0074079465
77	0x3dab0bb6	0.08351843
78	0x3da65181	0.081210144
79	0xbdc2c79b	-0.09510728
80	0xb93f2548	-0.00018229068
81	0x3d6a0bba	0.05714009
82	0xbc0821c2	-0.00830883
83	0x3d83f8ec	0.064439625
84	0x3cb87084	0.02251459
85	0xbc022508	-0.007943399
86	0x3d15b425	0.036548752
87	0x3b58acbd	0.0033061944
88	0xbdc40335	-0.09570924
89	0xbd2e8ce2	-0.042614825
90	0xbda18e94	-0.07888523
91	0x3d743d88	0.059628993
92	0x3c606f96	0.013698479
93	0xbd083abd	-0.033259142
94	0xbc998432	-0.018739793
95	0x3c3bccc1	0.011462391
96	0xbc7e9537	-0.015538505
97	0xbd19acba	-0.03751824
98	0xbd7cf6bf	-0.061758753
99	0x3ce87ae9	0.02837892
100	0x3d93b15a	0.072115615
101	0x3c564e5a	0.013080204
102	0x3d312cdb	0.043255668
103	0xbe00b0a6	-0.12567386
104	0xbc8fb2b0	-0.01754126
105	0x3d234fc6	0.039871
106	0xbcbbdc76	-0.022932272
107	0x3d843327	0.06455069
108	0x3bf11a3b	0.0073578632
109	0xbd6f78c9	-0.0584648
110	0x3c5bd073	0.013416397
111	0x3d16dd9c	0.036832437
112	0xbd0c4e7a	-0.03425453
113	0x3cc5ebf6	0.024160367
114	0xbc61d693	-0.013784069
115	0xbc18f6e5	-0.009336208
116	0xbd2a182f	-0.04152697
117	0xbdacfa4f	-0.0844618
118	0xbd03a528	-0.032139927
119	0xbd28175f	-0.041037913
120	0xbd16aa89	-0.03678373
121	0x3cd30ffa	0.025764454
122	0x3c91f43d	0.017816657
123	0xbcdfea2d	-0.027333343
124	0x3dbd69de	0.09248708
125	0x3d057c1b	0.03258906
126	0x3d43a360	0.04776323
127	0xbb825980	-0.0039779544
128	0xbdbfc469	-0.09363634
129	0x3d9c0a7a	0.07619186
130	0x3c22a4aa	0.009926954
131	0xbc1b9835	-0.009496738
132	0x3ca00450	0.019533306
133	0x3d580d38	0.05274698
134	0xbc894557	-0.016756697
135	0xbcc11b92	-0.023572717
136	0xbd72c1ee	-0.059266977
137	0xbd127182	-0.03575278
138	0xbd508cb5	-0.05091544
139	0xbd6334f9	-0.05547044
140	0x3df33e45	0.11877111
141	0x3df14727	0.11781149
142	0xbc5a0b2c	-0.013308328
143	0xbce5b483	-0.028040176
144	0x3cae7366	0.02129526
145	0xbd232dd2	-0.03983862
146	0xbce478bd	-0.027889604
147	0xbcb895dd	-0.022532398
148	0x3bf98764	0.007615017
149	0x3cc932df	0.02456039
150	0xbc1d5db4	-0.00960486
151	0xbcc083b2	-0.023500297
152	0x3a702bd3	0.0009161804
153	0xbc5bf915	-0.013426085
154	0xbd1dba60	-0.03850782
155	0xbcf9a4d0	-0.030474097
156	0x3cad0048	0.021118298
157	0x3c153b30	0.00910835
158	0xbc2552d5	-0.0100905495
159	0x3d1972fc	0.037463173
160	0x3ce75726	0.028239798
161	0x3cccf993	0.02502135
162	0x3cf08aa0	0.029362977
163	0xbb8fbca2	-0.0043865005
164	0x3cf44fb4	0.029823162
165	0xbd270087	-0.040771987
166	0xbcb3be47	-0.021941317
167	0xbc5aec88	-0.0133620575
168	0xbdb06586	-0.08613114
169	0x3d7baf3f	0.061446425
170	0x3d0ac4fc	0.033879265
171	0xbdc94c44	-0.09829
172	0x3da42efa	0.080167726
173	0xbde23363	-0.110449575
174	0x3d908ee3	0.070585035
175	0xbdc413e0	-0.09574103
176	0xbccfafce	-0.025352385
177	0x3d9c5589	0.07633502
178	0x3dc330a3	0.09530761
179	0x3cd94218	0.026520774
180	0x3d5fe013	0.054657053
181	0xbc1f3b70	-0.009718761
182	0x3d54abe6	0.051921748
183	0x3c86c373	0.01645062
184	0xbc0ef553	-0.008725482
185	0x3bf5610e	0.0074883765
186	0x3dad5323	0.08463123
187	0xbbc3b75c	-0.005972786
188	0x3db71430	0.08939397
189	0x3e1ab6f8	0.1510886
190	0x3d642d2a	0.055707134
191	0xbc48b948	-0.012251206
192	0xbb7e7616	-0.003882771
193	0x3cf275fc	0.029597275
194	0x3caa18c1	0.020763757
195	0x3d3ad9bb	0.0456178
196	0xbc239e4f	-0.009986474
197	0x3d4193f5	0.047260243
198	0x3c4db685	0.012555723
199	0xbdb6c59e	-0.08924411
200	0xbd2d5d9f	-0.042325612
201	0xbbea4372	-0.0071491534
202	0xbca54d7d	-0.02017855
203	0x3d8ea23e	0.06964539
204	0xbd674de9	-0.056470785
205	0xbcc4c1e0	-0.024018228
206	0xbd6079de	-0.05480372
207	0xbc9394c0	-0.018015265
208	0xbd8506aa	-0.06495412
209	0x3a4227dc	0.0007406452
210	0xbdad5ef0	-0.084653735
211	0xbc8755c6	-0.016520392
212	0xbb5e3dbb	-0.0033911306
213	0x3c165237	0.009174875
214	0xbd001687	-0.031271484
215	0x3b0ca0df	0.0021458191
216	0xbd63cde0	-0.05561626
217	0x3b8e79cc	0.0043480154
218	0x3bb804fd	0.005615829
219	0x3cb5ce93	0.022193229
220	0x3dee141b	0.116249286
221	0xbd02494a	-0.031808175
222	0x3d639a89	0.055567298
223	0xbd8e86ee	-0.069593295
224	0xbd6780dc	-0.056519374
225	0x3e170cbd	0.14750953
226	0xbd3e528d	-0.046465445
227	0xbc6b25f3	-0.0143523095
228	0x3d92ba2c	0.07164416
229	0xbd896809	-0.06709296
230	0x3c29d1d3	0.010364967
231	0xbc237db0	-0.009978697
232	0xbda835e3	-0.08213403
233	0x3d49297d	0.049111832
234	0xbd742d35	-0.059613425
235	0x3ceb7e18	0.02874665
236	0xbd526713	-0.05136783
237	0xbe2acb31	-0.16679074
238	0xbdd0c6f2	-0.10194196
239	0xbcb7f730	-0.022456735
240	0xbc71c6a5	-0.014756833
241	0x3d216e78	0.03941199
242	0x3c99535f	0.018716512
243	0x3ce837f5	0.028346995
244	0xbd4f4113	-0.05059917
245	0xbd265e9d	-0.040617574
246	0x3d8104b2	0.06299724
247	0xbd0f5e3d	-0.035001982
248	0xbd131fcc	-0.035918996
249	0xbb97a467	-0.0046277526
250	0xbd8e78ba	-0.069566205
251	0x3da48983	0.08034041
252	0x3c869d49	0.016432421
253	0x3c25662e	0.010095162
254	0xbc383688	-0.01124347
255	0x3b7e59c8	0.0038810838

layers.0.bias f4 [512]
0	0x3dad9428	0.08475524
1	0x3cc1a6d2	0.023639116
2	0xbc19d515	-0.009389182
3	0x3d83395e	0.06407426
4	0x3d44b53c	0.0480244
5	0xbdac6403	-0.08417513
6	0xbe4c8432	-0.19972304
7	0xbd187a92	-0.037226267
8	0xbc23c947	-0.009996719
9	0xbd75d1fb	-0.060014706
10	0xbd3f04df	-0.046635505
11	0x3cd9e0e6	0.026596498
12	0x3c3f32c8	0.011669822
13	0xbc3e5832	-0.011617707
14	0xbd55bba4	-0.0521809
15	0x3ac47c9d	0.0014990751
16	0xbe1120ac	-0.1417262
17	0xbdbec0b6	-0.093141004
18	0x3d7766bd	0.060400713
19	0xbc18f848	-0.009336539
20	0xbd752ae3	-0.059855353
21	0xbda28148	-0.07934815
22	0xbcf27cec	-0.029600583
23	0xbda83f72	-0.08215226
24	0x3d3dd860	0.04634893
25	0xbdf059ea	-0.117359
26	0xbcf69a91	-0.030103
27	0xbe311bc7	-0.17295752
28	0xbdf98b31	-0.12184752
29	0xbd999fa7	-0.075011544
30	0xbb8c1194	-0.0042745564
31	0xbe03c719	-0.12868918
32	0xbcf087ae	-0.029361572
33	0x3d45eec8	0.048323423
34	0x3d3fdf51	0.04684383
35	0x3cd1ef97	0.02562694
36	0xbcf88784	-0.030338056
37	0x3d92235e	0.07135652
38	0xbe0ee704	-0.13955313
39	0xbc343ac5	-0.01100034
40	0xbdf4397e	-0.11925028
41	0xbc4c44f9	-0.012467616
42	0xbd81011f	-0.06299042
43	0xbe2f8d36	-0.17143711
44	0xbe2714f9	-0.16316594
45	0x3ceb7639	0.028742896
46	0xbd869ebc	-0.06573245
47	0x3d24d037	0.04023763
48	0xbdf429d4	-0.119220406
49	0x3bc8b43e	0.006125002
50	0xbe32627f	-0.17420386
51	0xbe4343e0	-0.19068861
52	0xbdfdbdcb	-0.12389716
53	0x3ded8593	0.11597743
54	0xbcdb26ed	-0.02675196
55	0x3d4acb4a	0.049510278
56	0x3b1dc250	0.0024072118
57	0xbe03ba61	-0.12864067
58	0x3c526905	0.012842421
59	0x3d168137	0.036744323
60	0x3b812aa5	0.003941851
61	0x3d46589e	0.048424356
62	0xbdcfdef4	-0.10149947
63	0xbcc057bf	-0.02347934
64	0x3cc5e793	0.024158275
65	0x3bce6cc0	0.006299585
66	0xbd2f5f19	-0.0428153
67	0xbd43496f	-0.047677454
68	0xbd82b4a5	-0.063821115
69	0x3e01b97a	0.1266841
70	0xbd9fdfa5	-0.07806329
71	0xbe4cb402	-0.19990543
72	0xbd63508f	-0.05549675
73	0x3c06d02c	0.008228343
74	0xbcf6a97b	-0.030110111
75	0xbad7b1f1	-0.0016456229
76	0xbc50a2d7	-0.012734137
77	0xbde6de44	-0.112728626
78	0xbd94db47	-0.07268386
79	0xbdabb8ee	-0.08384882
80	0xbe40039d	-0.18751378
81	0xbd8d7458	-0.069069564
82	0xbe31d7cc	-0.17367476
83	0xbd1450f1	-0.036210004
84	0x3ca3276d	0.01991626
85	0x3d291748	0.04128197
86	0xbdf5e737	-0.12006991
87	0xbe490c1e	-0.19633529
88	0xbdc07e44	-0.09399083
89	0x3de3a85a	0.11116095
90	0x3d1770fc	0.036972985
91	0x3c9305be	0.017947074
92	0x3d8df005	0.06930546
93	0xbcd88630	-0.026431173
94	0x3b79f0a5	0.003813782
95	0xbdd723fe	-0.10504912
96	0xbd2e5668	-0.042562872
97	0xbd69b444	-0.05705668
98	0xbcabfea0	-0.020995438
99	0xbd70cf3c	-0.058791384
100	0xbd83ca94	-0.06435123
101	0xbd137522	-0.03600038
102	0xbe2fb08d	-0.17157193
103	0x3ce83a61	0.02834815
104	0x3d88a499	0.066720195
105	0xbe073fe2	-0.13207963
106	0xbda863be	-0.08222149
107	0x3d7f7b6b	0.06237356
108	0x3d077b87	0.03307679
109	0x3bea3934	0.0071479324
110	0xbdf58f79	-0.11990256
111	0x3c7992cd	0.015232754
112	0x3d09235f	0.033480998
113	0xbd491216	-0.049089514
114	0xbd6c8923	-0.05774797
115	0xbc8132b2	-0.015771244
116	0xbd7dd94f	-0.06197482
117	0x3cf16c90	0.029470712
118	0xbda14bce	-0.07875787
119	0xbe4c18a9	-0.19931282
120	0xb973a926	-0.00023237299
121	0x3d3c396e	0.045953207
122	0xbd29bd6a	-0.041440405
123	0xbe0a9b38	-0.13535774
124	0x3d228d3a	0.039685465
125	0xbe3e6c7e	-0.18596074
126	0xbe4f3643	-0.20235543
127	0xbdb0bd63	-0.08629873
128	0xbe3d1574	-0.18465215
129	0xb846a6c9	-4.736221e-05
130	0x3db44246	0.08801703
131	0xbd9359fb	-0.07194897
132	0x3cfac24b	0.030610224
133	0xbde27587	-0.11057573
134	0x3c9dc449	0.019258635
135	0xbe4385a4	-0.19093949
136	0x3d014a4e	0.031565003
137	0xbdd79417	-0.10526293
138	0xbda813db	-0.08206912
139	0xbe1ac68b	-0.151148
140	0xbe3e4107	-0.18579493
141	0x3d4d2b79	0.050090287
142	0x3d314e56	0.043287598
143	0xbdde56ca	-0.108563974
144	0xbdaaade6	-0.0833395
145	0xbbb68acb	-0.0055707446
146	0xbc3ee3fe	-0.011651037
147	0x3dda699c	0.10664675
148	0xbd9d8d8d	-0.07693014
149	0xbdaf9a86	-0.08574395
150	0xbe1b1850	-0.15145993
151	0xbe793b38	-0.24338996
152	0xbd2a2cc1	-0.041546587
153	0xbe368d3d	-0.17827316
154	0x3ceaab6d	0.028646195
155	0x3c9caf40	0.019126534
156	0xbdcfd592	-0.10148157
157	0xbd772835	-0.06034108
158	0x3c69b514	0.014264364
159	0x3c5b531b	0.013386513
160	0x3d455e48	0.048185617
161	0x3c0ce77f	0.008600115
162	0xbdad66de	-0.08466886
163	0xbd9fc599	-0.07801361
164	0xbe4c1e6f	-0.19933484
165	0xbd5d20ec	-0.053986475
166	0xbdf2b968	-0.1185177
167	0xbe12d128	-0.143376
168	0xbd77732c	-0.06041257
169	0x39bd6266	0.00036122202
170	0xbc65d874	-0.014028657
171	0x3cb2db11	0.021832975
172	0xbbb6980c	-0.0055723246
173	0xbde8f64c	-0.113751024
174	0xbe1dd40d	-0.15412922
175	0x3dad0004	0.084472686
176	0xbe1c520a	-0.1526567
177	0xbce2459d	-0.027621085
178	0xbe4dbb2b	-0.2009093
179	0xbe26d319	-0.16291465
180	0xbe061943	-0.13095574
181	0xbc809e54	-0.015700497
182	0xbc4a3482	-0.01234162
183	0xbdcab98e	-0.09898673
184	0x3d818c10	0.06325543
185	0xbd1b1790	-0.037864268
186	0xbce25731	-0.027629467
187	0x3ce77fb6	0.02825914
188	0x3da94ae5	0.08266238
189	0xbd7dc5cf	-0.061956223
190	0x3a902c5b	0.0010999547
191	0x3c2f3d84	0.010695819
192	0xbe4fc586	-0.20290193
193	0xbd8d3272	-0.06894387
194	0xbcb47a2d	-0.022030914
195	0xbd26b2e6	-0.040697955
196	0x3d1490c5	0.036270875
197	0xbdce613d	-0.100771405
198	0xbd3ff6f7	-0.046866383
199	0xbe2dc7bf	-0.16970728
200	0x3d5a6a03	0.053323757
201	0xbdaddd2d	-0.084894516
202	0xbccd5d67	-0.025068952
203	0xbe16507e	-0.14679143
204	0xbd97f8be	-0.07420491
205	0x3c0cddb8	0.008597784
206	0xbdcd78d4	-0.10032812
207	0x3cc57c38	0.024107084
208	0x3dac3626	0.084087655
209	0x3d9d1a7c	0.07671067
210	0xbdf4568c	-0.1193057
211	0x3c80a270	0.015702456
212	0x3dd270cb	0.1027542
213	0x3d91abb5	0.07112829
214	0xbe5bc14e	-0.21460459
215	0xbe0ed755	-0.1394933
216	0xbd38e986	-0.04514458
217	0xbe298421	-0.1655431
218	0x3cace398	0.021104619
219	0xbcd9d91f	-0.02659279
220	0xbdc41647	-0.095745616
221	0xbe34dcc4	-0.1766234
222	0xbbf743f1	-0.007545941
223	0xbd4c7916	-0.049920164
224	0x3da85a72	0.08220376
225	0xbe124ad6	-0.1428636
226	0xbe04231d	-0.1290402
227	0xbe43b9dd	-0.1911387
228	0x3d950a0b	0.07277306
229	0x3adb2003	0.0016717914
230	0xbd8b9f09	-0.06817443
231	0x3bba6b84	0.0056890864
232	0x3ce7fa0c	0.028317474
233	0x3ca50e01	0.02014828
234	0x3d230654	0.039800957
235	0xbe0cd97a	-0.13754836
236	0xbd2ac36d	-0.04169028
237	0xbbe3cf56	-0.0069522066
238	0xbc369a3a	-0.011145169
239	0xbd5c8988	-0.053842098
240	0x3d8dd494	0.06925312
241	0xbd122374	-0.035678342
242	0x3d3c44e8	0.04596415
243	0xbe51e116	-0.2049602
244	0xbe0afced	-0.13573046
245	0x3d7316d2	0.059347935
246	0xbd3c0c73	-0.04591031
247	0xbdb60d35	-0.08889238
248	0xbe15cd78	-0.14629161
249	0x3dbc9ca0	0.09209561
250	0xbe37e6e3	-0.1795917
251	0xbe30caf7	-0.17264925
252	0xbd0fe10b	-0.035126727
253	0x3bea7030	0.007154487
254	0xbd9cd091	-0.076569684
255	0xbe35ee7e	-0.17766759

layers.1.weight f4 [256, 514]
0	0xbd04f97b	-0.032464486
1	0xbdb5fc93	-0.08886065
2	0x3cffd02f	0.0312272
3	0x3c2b79dd	0.010466066
4	0xba3bb588	-0.0007160534
5	0xbd53f9af	-0.05175179
6	0xbd10949a	-0.035297967
7	0xbce7ae15	-0.028281251
8	0x3c026fa3	0.007961187
9	0xbcaf76c1	-0.021418931
10	0x3d4593c5	0.048236627
11	0x3d944874	0.07240382
12	0xbd227fd7	-0.0396727
13	0xbd175a51	-0.036951367
14	0x3cfff8b4	0.03124652
15	0xbcf8b18d	-0.0303581
16	0xbd897943	-0.06712582
17	0xbd3b08f1	-0.045662824
18	0xbd75718f	-0.05992275
19	0xbc34c506	-0.011033302
20	0x3d42ddd7	0.047574844
21	0xbccfc1b6	-0.025360923
22	0xbd0393db	-0.032123428
23	0x3c5471e3	0.012966606
24	0xbda6f19c	-0.08151552
25	0xbcc6e24f	-0.024277834
26	0xbb070457	-0.0020601952
27	0x3c5d4ee9	0.013507583
28	0x3cd8294c	0.02638688
29	0xbc245e03	-0.01003218
30	0xbd62abb6	-0.055339538
31	0x3d6cfc28	0.057857662
32	0xbd088b76	-0.033336125
33	0x3b3a9375	0.002846924
34	0xbcdd7c7f	-0.027036903
35	0xbd9faf68	-0.07797128
36	0x3d1cc84f	0.038276967
37	0x3b85f989	0.004088585
38	0x3d571915	0.052514154
39	0xbd793731	-0.06084365
40	0xbd617c31	-0.05505008
41	0x3bdc70e3	0.0067273243
42	0xbc75069d	-0.01495519
43	0x3d302dfe	0.04301261
44	0xbd7c613e	-0.061616175
45	0x3d2f7ef8	0.042845696
46	0x3d19e560	0.037572265
47	0xbc962c54	-0.018331684
48	0xbcf04e4f	-0.029334215
49	0xbd83e20a	-0.06439598
50	0xbdb2769a	-0.08714028
51	0x3cafb488	0.021448389
52	0x3d34d16e	0.04414504
53	0x3c8e3863	0.017360872
54	0xbd6e9c1e	-0.058254354
55	0xbdbc2f97	-0.091887645
56	0xbd7bbb4f	-0.06145793
57	0xbd3824bf	-0.04495692
58	0x3cd9798f	0.026547221
59	0x3d98a3b5	0.074531
60	0x3d374733	0.044745635
61	0x3c88e050	0.016708523
62	0x3cefc56e	0.029268946
63	0xbc45655c	-0.012048092
64	0xbd89bf24	-0.0672591
65	0x3d01e70e	0.03171449
66	0x3cfc9f03	0.030837541
67	0xbcaa3e14	-0.020781554
68	0xbd6af190	-0.05735928
69	0x3d300598	0.042974085
70	0xbb3056c4	-0.0026907185
71	0x3d7159d4	0.058923557
72	0xbd86601a	-0.06561299
73	0x3c0d69c5	0.008631174
74	0x3cddddb3	0.027083253
75	0x3c272b43	0.0102031855
76	0xbcfba6cc	-0.030719183
77	0xbcf61a10	-0.030041724
78	0xbd6f6622	-0.05844701
79	0xbd94a45f	-0.07257914
80	0xbd3629ea	-0.044473566
81	0xbd487a9c	-0.048945054
82	0x3b8162cf	0.0039485465
83	0xbc35872c	-0.011079591
84	0x3d32e0f0	0.04367155
85	0x3c5928c8	0.013254352
86	0x3d0bde64	0.034147635
87	0xbd3a43d3	-0.04547484
88	0xbd3ed777	-0.046592202
89	0x3cd5da2e	0.026105013
90	0x3cb32da9	0.021872358
91	0xbda1d8a9	-0.07902653
92	0x3d32cad4	0.043650463
93	0xbd3c555e	-0.04597985
94	0x3cccd147	0.025002135
95	0xbc395de3	-0.011313888
96	0x3b3a0cf3	0.0028389066
97	0xbd501edd	-0.050810684
98	0xbd5e9dae	-0.054349594
99	0xbc3e7b0a	-0.0116260145
100	0xbc22a566	-0.009927129
101	0xbc31b66c	-0.010846715
102	0xbd346ee9	-0.044051085
103	0x3c28208d	0.010261667
104	0x3c99c442	0.01877034
105	0xbc2423a5	-0.010018264
106	0xbd01e923	-0.031716477
107	0x3d94ce7b	0.072659455
108	0x3c0c3fe7	0.008560157
109	0xbd3c01a0	-0.045899987
110	0xbcad0bac	-0.02112373
111	0x3b98ed44	0.004666956
112	0xbca4596e	-0.020062175
113	0xbdb5fc79	-0.08886046
114	0x3caaa6d5	0.020831505
115	0xbd929bce	-0.07158624
116	0x3c819f0e	0.015822913
117	0xbd11f72f	-0.035636123
118	0xbd94d2b1	-0.07266749
119	0xbd34749a	-0.044056512
120	0xbc8cb12a	-0.017174322
121	0xbcb9e947	-0.022694243
122	0x3d89b219	0.067234226
123	0xbd78a224	-0.060701504
124	0xbc818344	-0.015809663
125	0x3d5fb263	0.054613482
126	0xbd4b3cb2	-0.04961843
127	0xbd610b74	-0.054942563
128	0xbd691d8f	-0.056912955
129	0x3c835e62	0.016036216
130	0xbc8f8c88	-0.017523065
131	0x3d145541	0.036214117
132	0x3d2c1bc9	0.042018685
133	0xbd798052	-0.06091339
134	0xbd3d91d5	-0.046281654
135	0xbb34d768	-0.0027594212
136	0xbd87a357	-0.066229515
137	0x3d781427	0.060566094
138	0xbda8e1b2	-0.08246173
139	0xbd7d3f33	-0.06182785
140	0x3d27ea98	0.04099521
141	0xbd0584b8	-0.032597274
142	0xbcb2d3c7	-0.021829499
143	0xbd47a958	-0.048745483
144	0x3c7c6780	0.015405536
145	0xbcec7670	-0.02886507
146	0x3c42342b	0.011853258
147	0xbd86964f	-0.06571638
148	0xbcfaecc2	-0.030630473
149	0x3d3c4a20	0.04596913
150	0xba4a8f80	-0.00077270716
151	0xbca42a88	-0.020039812
152	0xbcd64002	-0.026153568
153	0x3d55e558	0.052220672
154	0xbcd715dc	-0.02625554
155	0xbc9be2b2	-0.019028995
156	0x3d414102	0.047181137
157	0xbd607ae1	-0.054804686
158	0x3d084bbd	0.033275355
159	0x3d7e484c	0.062080666
160	0xbb946e34	-0.004529739
161	0xbd9ad90b	-0.07560929
162	0xbd170f66	-0.03687992
163	0xbd244093	-0.040100645
164	0x3d087f4c	0.033324525
165	0x3ba859d8	0.0051376633
166	0xbd1223bc	-0.03567861
167	0xbcdc89d4	-0.02692119
168	0xbdb6daf6	-0.08928482
169	0x3b11e962	0.002226435
170	0x3d026aa9	0.03184
171	0xbda44b80	-0.08022213
172	0xbdb35490	-0.087563634
173	0x3d061163	0.032731425
174	0xbd7b3450	-0.061329186
175	0x3c0da008	0.008644111
176	0xbcf04171	-0.02932808
177	0xbcfc53dc	-0.030801706
178	0xbd5067fb	-0.050880414
179	0x3d77f831	0.06053943
180	0xbda3be1a	-0.07995243
181	0x3bc90e50	0.0061357394
182	0x3c2cee15	0.01055481
183	0x3ca2e00d	0.019882226
184	0x3d1d1f5b	0.03835998
185	0xbb2ff853	-0.0026850894
186	0xbd019d2e	-0.03164404
187	0xbcc53466	-0.024072837
188	0x3bb5f658	0.005553048
189	0xbcf89b96	-0.030347627
190	0xbd4cc550	-0.04999286
191	0xbba696e1	-0.005083904
192	0xbc088058	-0.008331381
193	0x3cc88912	0.024479423
194	0xbda4351d	-0.08017943
195	0x3d043330	0.03227538
196	0xbb4e7281	-0.0031501355
197	0x3cee6586	0.029101145
198	0xbc44bf95	-0.012008567
199	0xbd3b3801	-0.045707706
200	0x3cf91654	0.030406155
201	0x3d18d203	0.037309658
202	0xbd891add	-0.06694577
203	0x3cdfe77a	0.027332056
204	0xbd6e9b50	-0.058253586
205	0x3d22f04d	0.03977995
206	0xbd2728e0	-0.040810466
207	0x3bbab1e8	0.0056974776
208	0xbd1e3132	-0.038621135
209	0x3d776e65	0.060408015
210	0x3ccd1b4d	0.025037432
211	0x3d3f602b	0.046722572
212	0x3b831c91	0.004001208
213	0x3bb8d845	0.0056410157
214	0x3d2d7093	0.042343687
215	0xbd3384aa	-0.04382769
216	0xbd670a42	-0.056406267
217	0xbc7b8e91	-0.015353815
218	0xbd6c177d	-0.057639588
219	0xbd85e5a3	-0.0653794
220	0x3c58ae55	0.013225158
221	0xbd195cd4	-0.037442043
222	0xbd071bf3	-0.03298564
223	0x3c151a43	0.0091005
224	0xbdadf180	-0.08493328
225	0xbba5e835	-0.0050630816
226	0xbc9dadb3	-0.019247865
227	0x3c0cb548	0.008588143
228	0xbb9830a7	-0.0046444717
229	0xbcb1ac8f	-0.021688728
230	0x3c09536f	0.0083817085
231	0x3d67537c	0.0564761
232	0xbd8102ce	-0.06299363
233	0xbd4173e8	-0.047229677
234	0x3d33f5ed	0.043935705
235	0xbd8ebc07	-0.06969457
236	0x3d4df39c	0.050281152
237	0xbc8035f8	-0.015650734
238	0xbd1fdfd2	-0.03903181
239	0xbc9cff47	-0.019164694
240	0xbc08f4c3	-0.008359137
241	0x3a35956c	0.00069268676
242	0x3d217c94	0.039425448
243	0x3d6752bd	0.05647539
244	0x3d0bda80	0.034143925
245	0x3d674e84	0.056471363
246	0x3b8a4a6d	0.004220298
247	0x3d7db2da	0.061938144
248	0x3d34546c	0.044025823
249	0x3d4497e0	0.0479964
250	0xbd05b9f9	-0.03264806
251	0x3bf727b4	0.007542575
252	0x3cf85c59	0.030317472
253	0x3d66d81f	0.056358453
254	0xbd6835fe	-0.056692116
255	0x3b9faa3c	0.0048725884

layers.1.bias f4 [256]
0	0xbc78ecf4	-0.015193213
1	0xbd1b2a92	-0.037882395
2	0xbd1d2309	-0.03836349
3	0x3d10ec32	0.035381503
4	0x3c44c22c	0.012009185
5	0xbce37149	-0.02776398
6	0x3d338785	0.043830413
7	0x3d10e85e	0.035377853
8	0xbd7836a8	-0.060599
9	0x3c8869f1	0.01665208
10	0xbc80cc24	-0.015722342
11	0xbc2bb633	-0.010480451
12	0xbcf79e0d	-0.030226732
13	0xbd007e3b	-0.031370383
14	0xbd4557bf	-0.048179384
15	0x3cdba54e	0.026812222
16	0xbb8e336e	-0.004339627
17	0x3cd2d486	0.025736105
18	0x3d34eaa3	0.04416908
19	0xbd0e003d	-0.034668196
20	0x3d60a267	0.05484238
21	0x3d0e844e	0.034794144
22	0xbcdc0516	-0.026857894
23	0xbc93d111	-0.018044027
24	0xbd77d5f2	-0.06050677
25	0xbd223828	-0.039604336
26	0x3cb8b3b5	0.022546628
27	0x3d71d90a	0.059044875
28	0xbb5ec97e	-0.003399461
29	0xbd8bdea9	-0.068295784
30	0xbd6484b3	-0.055790614
31	0xbb21cab5	-0.0024687473
32	0x3ce173ce	0.02752104
33	0xbd3cd29f	-0.0460993
34	0x3a8b3d44	0.0010623117
35	0x3d0fa1ef	0.03506654
36	0xbd1d09b4	-0.03833933
37	0xbd443052	-0.047897644
38	0x3d3be771	0.045875017
39	0xbd2aa38f	-0.041659888
40	0xb8e2271b	-0.00010783804
41	0xbd3c9f21	-0.046050195
42	0xbd889118	-0.066682994
43	0x3d4f0f4d	0.0505517
44	0xbc9bfe3b	-0.019042125
45	0xbd571db7	-0.052518573
46	0x3d59f4ca	0.053211965
47	0xbc5b1f8f	-0.013374223
48	0xbc12fa48	-0.0089708045
49	0x3d06e88f	0.03293663
50	0xbd6cf7d1	-0.057853524
51	0xbd5806eb	-0.052740972
52	0xbd1cda77	-0.03829428
53	0xbcc0ae38	-0.023520574
54	0x3c88f4d9	0.016718315
55	0xbd50158c	-0.0508018
56	0xbc46cd0d	-0.012133849
57	0x3ca17b4b	0.019712111
58	0xbc022cb7	-0.007945231
59	0xbd1479ef	-0.036249097
60	0xbbe430ac	-0.00696381
61	0xbd22ff5e	-0.03979432
62	0x3d70f3d3	0.05882628
63	0x3b7b438d	0.0038339824
64	0x3d497d86	0.049191974
65	0x3c9c2cc4	0.019064315
66	0xbd404d0b	-0.046948474
67	0xbba87307	-0.0051406655
68	0xbd4e2a31	-0.050333206
69	0xbcb0277d	-0.021503204
70	0xbd72be1f	-0.059263345
71	0xbbc76900	-0.006085515
72	0x3d070057	0.03295931
73	0x3d50e24b	0.05099706
74	0xbbaeb655	-0.0053317943
75	0x3d03550f	0.03206354
76	0xbc1c1d3c	-0.009528454
77	0xbc1a41ea	-0.009415129
78	0x3cc2d48b	0.023782989
79	0xbd299bd2	-0.041408367
80	0xbbde1296	-0.006777118
81	0xbb30f84f	-0.0027003472
82	0x3d825db6	0.0636553
83	0xbccf4337	-0.025300605
84	0xbd276405	-0.04086687
85	0xbc7db98a	-0.0154861305
86	0xbc8c04fc	-0.01709222
87	0x3ccf3688	0.025294557
88	0xba1c6f07	-0.0005967472
89	0x3ce2eee9	0.027701812
90	0x3cdf7147	0.027275695
91	0x3d7ed06f	0.062210497
92	0x3d3999d7	0.04531273
93	0x3d1f3859	0.038872097
94	0x3d4b4b88	0.04963258
95	0xbba81f10	-0.005130656
96	0xbd26ecdc	-0.04075323
97	0x3c86d0cd	0.016456986
98	0x3d19879c	0.037482843
99	0x3d0d7ebb	0.034544688
100	0xbd340355	-0.04394849
101	0xbd061792	-0.032737322
102	0x3d1518f8	0.036400765
103	0x3c663c9b	0.014052535
104	0xbcdc865b	-0.026919534
105	0x3c89e48f	0.016832618
106	0x3d7299fd	0.059228886
107	0x3d113127	0.035447266
108	0x3d424a31	0.047434036
109	0x3cd5ecb7	0.026113851
110	0xbc9ca30c	-0.019120716
111	0x3cc6eff8	0.024284348
112	0xbb87bc1e	-0.0041422984
113	0x3d75f677	0.0600495
114	0xbd47d8ed	-0.04879086
115	0xbce1cc4f	-0.027563242
116	0x3d0d692b	0.034524124
117	0xbcd84da8	-0.026404217
118	0x3d69dcba	0.057095267
119	0x3b09f087	0.0021047906
120	0xbd396b65	-0.045268435
121	0x3aa5de1f	0.0012654698
122	0xbb28ad6a	-0.0025738128
123	0xbbb364e1	-0.005474672
124	0x3b1068b8	0.0022035073
125	0x3c56f173	0.013119089
126	0xbcd9470b	-0.026523134
127	0xbd133460	-0.03593862
128	0xbcfa9622	-0.030589167
129	0x3cc18237	0.023621662
130	0x3cdd6967	0.027027799
131	0xbbce0d61	-0.006288216
132	0x3d3823bf	0.044955965
133	0xbc964ddc	-0.018347673
134	0x3d3bacae	0.045818977
135	0xbc8a0cbf	-0.016851781
136	0x3d057bad	0.03258865
137	0xbc1bd75d	-0.009511796
138	0x3c950a2d	0.018193329
139	0x3d85bc9d	0.06530116
140	0xbc1409f6	-0.009035578
141	0xbccf325f	-0.025292573
142	0xbc8f60f3	-0.017502284
143	0x3cadc52c	0.021212183
144	0x3cb18890	0.021671563
145	0x3d826b7d	0.06368158
146	0x3a619884	0.00086057954
147	0xbd7d8b65	-0.061900515
148	0xbbae52e4	-0.00531994
149	0xbc0f1572	-0.00873314
150	0xbd05b242	-0.032640703
151	0x3c707c2e	0.014678044
152	0x3c8c7652	0.017146263
153	0x3ca94c2b	0.020666203
154	0x3cb210f2	0.021736596
155	0x3d44f7f3	0.048088025
156	0xbd28fa79	-0.041254494
157	0x3b9b2f54	0.0047358666
158	0xbc7f8773	-0.015596258
159	0xbc9c731e	-0.01909786
160	0xbb963311	-0.0045837243
161	0x3d06d003	0.03291322
162	0x3ce1bfa4	0.027557202
163	0xbd47650f	-0.04868036
164	0xbd0cd366	-0.034381293
165	0xbb84cecd	-0.004052973
166	0x3b479e13	0.003045921
167	0x3be1efdc	0.0068950485
168	0xbd833830	-0.06407201
169	0xbc236f95	-0.009975334
170	0x3cd6f32f	0.026239006
171	0x3bab5d82	0.005229653
172	0xbd374912	-0.04474742
173	0xbd30b96f	-0.043145593
174	0xbd4285a6	-0.04749074
175	0x3d5ffbdb	0.054683547
176	0xbd07e7c4	-0.033180013
177	0xbd347a2e	-0.044061832
178	0xbd3f6fbd	-0.04673742
179	0x3d6ee370	0.05832237
180	0x3c523f3d	0.01283246
181	0xbc4f9115	-0.012668868
182	0x3d0610ba	0.032730795
183	0xbcdc8ad6	-0.02692167
184	0xbd778e1c	-0.06043826
185	0x3d456154	0.048188522
186	0x3b63e7ac	0.0034775538
187	0x3cffec94	0.031240739
188	0x3d90ec98	0.07076377
189	0x3d82df2c	0.06390223
190	0x3c2bb500	0.0104801655
191	0x3d15fe88	0.036619693
192	0x3c7f542f	0.015584036
193	0x3c5a5d73	0.013327944
194	0xbd4f5026	-0.050613545
195	0xbc825d54	-0.015913643
196	0xbc087af9	-0.0083301
197	0x3d648350	0.05578929
198	0x3c3c0236	0.0114751365
199	0xbcbc33c0	-0.022973895
200	0xbd88f839	-0.0668797
201	0x3cb7530c	0.022378467
202	0xbc9c8c7d	-0.019109959
203	0x3d8ff5f7	0.07029336
204	0x3d29688f	0.04135948
205	0xbca01d57	-0.01954524
206	0xbc9044e6	-0.017610978
207	0xbd4d35d9	-0.05010018
208	0xbd17fe8c	-0.03710799
209	0x3d1c596b	0.038171213
210	0xbada3e7e	-0.0016650704
211	0x3d1571dd	0.03648554
212	0x3c5b3998	0.013380431
213	0xbd4b6606	-0.049657844
214	0xbce84723	-0.028354233
215	0xbcc7c154	-0.024384178
216	0xbc004e9c	-0.007831242
217	0xbd04d5f5	-0.032430608
218	0xbcd77a77	-0.026303513
219	0xbc11e3f3	-0.008904445
220	0xbd8f9fba	-0.07012887
221	0xbd0aa087	-0.033844497
222	0x3d2a36f4	0.041556314
223	0xbc48f100	-0.01226449
224	0xbd57a37a	-0.052646138
225	0xbc9076a8	-0.017634705
226	0x3bd9ad8f	0.0066430042
227	0x3cb2ebd6	0.021840971
228	0x3d6d39fc	0.057916626
229	0x3c838865	0.016056249
230	0xba93bc98	-0.0011271415
231	0xbb7f1bc7	-0.0038926469
232	0xbcfa126d	-0.030526364
233	0xbd12ef87	-0.035872962
234	0x3da3339b	0.07968827
235	0xbd466d3b	-0.048444014
236	0x3c7ce8e1	0.015436382
237	0xbda883b3	-0.08228245
238	0xbc33239c	-0.010933783
239	0x3c7acfed	0.015308362
240	0xbc1439f5	-0.009047021
241	0xbd73ef2c	-0.059554264
242	0xbcfe3a53	-0.03103367
243	0xbcd0c001	-0.02548218
244	0xbcdd6fa4	-0.027030773
245	0xbcd66dee	-0.026175465
246	0xbd361fa6	-0.044463776
247	0xbad79800	-0.0016448498
248	0x3c85a2ec	0.016313039
249	0x3cfdf085	0.030998478
250	0x3c9d7385	0.019220123
251	0x3bba9456	0.0056939526
252	0xbc4635fd	-0.012097833
253	0xbd6dd807	-0.058067348
254	0xbc52942e	-0.012852712
255	0x3d7721b1	0.060334865

output.weight f4 [1, 256]
0	0x3d259580	0.040425777
1	0xbc018689	-0.007905611
2	0x3c8e9f5d	0.017409975
3	0x3c308b25	0.010775362
4	0xbd562d46	-0.05228927
5	0xbb3ef018	-0.0029134806
6	0xbd381a50	-0.04494697
7	0x3c4f81f1	0.012665258
8	0x3c1dd463	0.0096331565
9	0x3d688c63	0.05677451
10	0x3cb1bebd	0.021697396
11	0xbbcd5245	-0.006265911
12	0x3d40aca2	0.047039635
13	0x3c28b478	0.010296933
14	0xba946189	-0.0011320572
15	0x3c4b897c	0.012422916
16	0x3d8dec5a	0.06929846
17	0xbc3d4368	-0.011551715
18	0x3d91db93	0.071219586
19	0xbcc67a93	-0.02422837
20	0x3d232e1d	0.0398389
21	0x3c1de640	0.009637415
22	0xba031340	-0.0005000122
23	0x3b2ac97a	0.002606003
24	0x3b3707cf	0.0027928238
25	0x3c372c5a	0.011180008
26	0x3c5bd8f7	0.013418428
27	0x3c3422e2	0.010994645
28	0xbccc2915	-0.024921933
29	0x3c2cb289	0.010540613
30	0x3c58dfce	0.013236953
31	0xbd5a04e7	-0.05322733
32	0xbd1703b7	-0.036868777
33	0x3c166af4	0.009180773
34	0xbc84075c	-0.01611679
35	0x3c80021a	0.015626002
36	0x3c39aae1	0.011332245
37	0x3cbea050	0.023269802
38	0x3c6d9701	0.014501334
39	0xbdbec017	-0.09313982
40	0x3c118ccb	0.008883665
41	0x3b222c32	0.002474558
42	0x3ca1cd47	0.019751204
43	0x3c645907	0.013937241
44	0x3a283bad	0.0006417584
45	0x3b9a05a9	0.004700382
46	0x3ce7d87b	0.028301468
47	0x3c9dd0c2	0.019264583
48	0x3dbd0614	0.09229675
49	0x3c58ac96	0.013224741
50	0x3cdc9b8e	0.026929643
51	0x3d89fc33	0.06737556
52	0x3d049bc8	0.032375127
53	0x3c7f18a7	0.015569842
54	0xbd6e9dc6	-0.058255933
55	0xbccda247	-0.025101794
56	0x3b5e4194	0.00339136
57	0x3d08c331	0.033389274
58	0x3c903a73	0.017605996
59	0xbba27660	-0.004957959
60	0xb9aeb83b	-0.0003332513
61	0x3ab76228	0.0013991045
62	0x3c6aa554	0.014321644
63	0x3cd57505	0.026056776
64	0x3c6b359b	0.014356042
65	0x3c561e74	0.013068784
66	0xbb8c684a	-0.004284893
67	0x3bf0eb3c	0.007352261
68	0x3c40ea85	0.011774664
69	0x3b83521b	0.0040075905
70	0xbca263a7	-0.019822909
71	0xbc1399d7	-0.009008846
72	0xbc310f86	-0.010806924
73	0x3d08f136	0.03343316
74	0x3bbc9b8b	0.005755847
75	0x3c571121	0.013126642
76	0x3c64c564	0.013963077
77	0xbbbc7515	-0.005751262
78	0xbc2de55b	-0.010613765
79	0xbd0369bd	-0.03208326
80	0xbadbb0f5	-0.0016761111
81	0xbbc656a7	-0.0060528102
82	0x3dbb3ed8	0.09142846
83	0xbbf4ce5a	-0.007470888
84	0x3a8151c1	0.0009866284
85	0x3ded7003	0.1159363
86	0xbc20f9db	-0.009825195
87	0xbd1e36b5	-0.03862639
88	0x3c25b3ee	0.010113699
89	0x3cb0d902	0.021587852
90	0x3da71090	0.08157456
91	0x3c37f239	0.011227184
92	0x3cb7810f	0.022400407
93	0x3c3e77d7	0.011625252
94	0x3c47f4d0	0.012204364
95	0x3ced3ce8	0.028959706
96	0xbbb2b288	-0.0054534115
97	0x3d223d70	0.039609373
98	0xbd3b7e13	-0.04577453
99	0x3cbf7b95	0.023374358
100	0x3cd45390	0.025918752
101	0x3a0c806e	0.00053597137
102	0x3d1cd627	0.03829017
103	0x3c3e89ca	0.011629531
104	0xbdace4db	-0.08442088
105	0x3d836fef	0.06417834
106	0x3c4113d3	0.011784512
107	0x3cb56ca8	0.022146538
108	0x3c5ce497	0.013482234
109	0xbd6993ea	-0.057025827
110	0xbae25e50	-0.0017270539
111	0x3ccc1bc7	0.024915589
112	0x3c41124a	0.011784146
113	0x3c68eb75	0.014216294
114	0x3d130287	0.035891082
115	0x3c3bda75	0.011465658
116	0x3c47d8cd	0.012197685
117	0xbc25dfc5	-0.010124152
118	0x3c58f2b3	0.013241458
119	0x3d89a87e	0.067215905
120	0x3c405775	0.011739601
121	0xbcd2c903	-0.025730615
122	0x3c7b29d1	0.015329794
123	0x3bfe056c	0.007752111
124	0xbc35aee2	-0.011089059
125	0x3c431271	0.011906252
126	0xbbf9d57a	-0.0076243253
127	0x3bc88645	0.006119522
128	0x3b84e45a	0.004055542
129	0xbd097baa	-0.0335652
130	0xbc139aa8	-0.009009041
131	0x3c3f33eb	0.011670093
132	0x3c659245	0.014011924
133	0x3c0fa7b6	0.008768013
134	0xbcb8b563	-0.02254743
135	0x3bd6c70d	0.0065544904
136	0xbc10a271	-0.008827792
137	0x3c3515a0	0.011052519
138	0x3cf923b0	0.030412525
139	0x3c847f6c	0.01617404
140	0xbd0fd538	-0.03511545
141	0x3dcbe36b	0.09955486
142	0x3d1e994a	0.038720407
143	0x3c59ba4a	0.013289044
144	0xbbf9e387	-0.0076260003
145	0x3d725849	0.059166227
146	0xbbc1fb26	-0.005919832
147	0xbc8802c9	-0.01660289
148	0x3c5dc721	0.013536246
149	0x39fbaac2	0.00048001675
150	0xba51e14e	-0.00080062903
151	0x3dbba1cd	0.091617204
152	0xbd8c0453	-0.06836762
153	0x3c31c97d	0.010851261
154	0x3c25e30b	0.010124932
155	0xbbe2ac77	-0.006917532
156	0x3b6cd8f7	0.0036140063
157	0xbbe437eb	-0.0069646738
158	0x3c6417ea	0.013921717
159	0x3c2880ad	0.010284585
160	0x3b2b15de	0.0026105563
161	0x3da0fd5e	0.07860826
162	0x3d0742fd	0.03302287
163	0x3c7959eb	0.015219192
164	0xbbc35a2e	-0.005961678
165	0x3a7a3838	0.00095451204
166	0xbb9d56f2	-0.0048016245
167	0x3d0c8afc	0.034312233
168	0xbb0d3761	-0.00215479
169	0x3d6ba892	0.057533808
170	0x3d3b4f5c	0.04572998
171	0x3c536090	0.01290144
172	0xbc85ea56	-0.016347092
173	0xba7063a2	-0.000917012
174	0xbc864fac	-0.016395412
175	0x3c37cb44	0.011217896
176	0x3924df81	0.0001572352
177	0x3d7f5d31	0.062344734
178	0xbd1c2af7	-0.038126912
179	0x3c2e1b0b	0.010626565
180	0x3c89af08	0.016807094
181	0xbb8959b4	-0.0041916016
182	0x3c4745eb	0.012162666
183	0x3dbc217a	0.09186073
184	0xbbff1fc8	-0.007785771
185	0x3c4d6b5e	0.012537805
186	0x3c47de2f	0.012198969
187	0x3c94ed8f	0.018179683
188	0x3c162d65	0.009166096
189	0x3cdd0099	0.026977824
190	0xbc943546	-0.018091809
191	0xbba200a3	-0.0049439236
192	0xbc5f8c2a	-0.013644258
193	0x3d0d2004	0.03445436
194	0xbceaef88	-0.02867867
195	0x3a97df80	0.0011586994
196	0xbbede2e6	-0.0072597144
197	0x3c8511c9	0.016243832
198	0xbb18a0b9	-0.0023289158
199	0xbca82e41	-0.020529868
200	0xbc02ec31	-0.007990883
201	0xbd86307a	-0.06552215
202	0xbc24c18e	-0.010055913
203	0x3cea3291	0.028588565
204	0x3c43d8b4	0.0119535215
205	0x3c2e6477	0.01064407
206	0xbc5aa49e	-0.013344912
207	0xb9c9179e	-0.00038355304
208	0x3d4b5dce	0.049650006
209	0xbc2b46c6	-0.010453885
210	0xbda1af21	-0.07894731
211	0x3c34a0a9	0.0110246325
212	0x3ceb8cd6	0.02875368
213	0xbbc28886	-0.005936685
214	0x3c9d04c8	0.019167319
215	0x3c23f87a	0.010007972
216	0x3a7a4d2c	0.00095482427
217	0xbc1de0b0	-0.009636089
218	0xbc10857b	-0.008820887
219	0x3b39a400	0.0028326511
220	0x3c7f52ea	0.015583733
221	0xbad9e479	-0.0016623876
222	0x3c92677b	0.017871609
223	0x3cbea224	0.023270674
224	0xbbf9aff9	-0.0076198545
225	0x39c2cc8c	0.00037154963
226	0x3c2f528e	0.010700835
227	0xbd5f2bd8	-0.054485172
228	0x3d06f2bf	0.032946344
229	0x3c30b97d	0.010786411
230	0xbbca37f8	-0.006171223
231	0x3c5d428b	0.013504635
232	0x3d5c8b4c	0.05384378
233	0x3dd4fa88	0.103993475
234	0x3ce50bda	0.027959753
235	0x3c38e754	0.011285622
236	0xbd2f0d4f	-0.0427373
237	0xbd369466	-0.044575118
238	0x3ccf3500	0.025293827
239	0x3c2d7776	0.010587564
240	0x3bf0e9f6	0.007352109
241	0x39c2a4d2	0.00037125364
242	0x3a2ce927	0.00065960217
243	0x3c975d0e	0.01847699
244	0xbb8ccd92	-0.004296967
245	0x3b8c6417	0.0042843926
246	0x3db716ce	0.089398965
247	0x3de6c4bb	0.11267992
248	0x3d2c7604	0.042104736
249	0x3ccd4eb1	0.025061937
250	0x3c396d47	0.011317558
251	0xbc817317	-0.01580195
252	0x3b67b63d	0.0035356425
253	0xbb711a3a	-0.0036789314
254	0x3c119464	0.008885477
255	0x3c7540b3	0.014969039
