checkpoint_actor.pth (torch_old, 580481 bytes, 10 tensors)

normalizer.weight f4 [24]
0.708557 0.64328116 0.64419055 0.57691985 1.0429739 0.79309785 0.4448582 0.17101976
0.7501943 0.2880358 0.6047246 0.59390503 0.7140989 1.0799143 0.56551635 0.75923854
0.8402113 0.4399873 0.37107646 1.0504651 0.12969269 0.663237 0.52238625 0.9359124
00000000: fe63 353f 13ae 243f ace9 243f 05b1 133f
00000010: 2b80 853f 7608 4b3f 74c4 e33e ce1f 2f3e
00000020: bc0c 403f 6e79 933e 3bcf 1a3f 290a 183f
00000030: 2fcf 363f a23a 8a3f aec5 103f 755d 423f
00000040: 1618 573f 0446 e13e bcfd bd3e a475 863f
00000050: 29ce 043e e6c9 293f 1bbb 053f f497 6f3f

normalizer.bias f4 [24]
0.002536953 -0.114070356 -0.0838419 -0.051241428 -0.06347109 0.043435235 -0.12390371 -0.12387853
-0.029722765 -0.04046879 -0.06202988 -0.08691266 -0.013729226 0.056720316 -0.08684854 -0.07259315
0.036522347 -0.11280294 0.0045911497 -0.02501233 -0.1997755 0.018262634 -0.017053219 -0.025722744
00000000: 0243 263b b89d e9bd 4db5 abbd 88e2 51bd
00000010: 21fd 81bd 25e9 313d 3ac1 fdbd 07b4 fdbd
00000020: 287d f3bc 9ac2 25bd 0b13 7ebd 44ff b1bd
00000030: 8cf0 60bc 9053 683d a6dd b1bd b8ab 94bd
00000040: 7598 153d 3a05 e7bd 5b71 963b a8e6 ccbc
00000050: f391 4cbe 859b 953c 31b3 8bbc 81b8 d2bc

normalizer.running_mean f4 [24]
-4.725184 -0.65433806 7.0530767 0.3916356 -0.017369157 3.2600029 7.0530767 0.3916356
-5.041639 -0.6955166 7.791252 0.3638927 -0.014777396 3.228296 7.791252 0.3638927
-5.3357925 -0.7359135 8.429751 0.2864918 -0.038621332 3.1263614 8.429751 0.2864918
00000000: b534 97c0 b382 27bf ceb2 e140 7684 c83e
00000010: c349 8ebc e3a3 5040 ceb2 e140 7684 c83e
00000020: 1b55 a1c0 600d 32bf f051 f940 2550 ba3e
00000030: e41c 72bc 679c 4e40 f051 f940 2550 ba3e
00000040: d0be aac0 d464 3cbf 43e0 0641 0eaf 923e
00000050: 6731 1ebd 4e16 4840 43e0 0641 0eaf 923e

normalizer.running_var f4 [24]
16.587793 1.0866191 283.0295 7.3870463 39.547585 4.8727674 283.0295 7.3870463
16.463356 1.1138775 298.5084 7.885726 43.188225 5.393087 298.5084 7.885726
16.134504 1.1290799 311.68646 8.855561 46.712112 6.3926134 311.68646 8.855561
00000000: cdb3 8441 5616 8b3f c783 8d43 af62 ec40
00000010: ba30 1e42 b6ed 9b40 c783 8d43 af62 ec40
00000020: f4b4 8341 8a93 8e3f 1341 9543 de57 fc40
00000030: bec0 2c42 2b94 ac40 1341 9543 de57 fc40
00000040: 7713 8141 b185 903f ded7 9b43 61b0 0d41
00000050: 34d9 3a42 4a90 cc40 ded7 9b43 61b0 0d41

layers.0.weight f4 [512, 24]
0.03205967 0.118127145 -0.032691076 0.10064029 0.10291301 -0.07714221 0.046563756 0.014299731
-0.036002573 0.12959515 0.037615743 0.08225006 0.10338522 -0.07594068 0.013934694 0.08939265
-0.08196681 0.09235277 -0.017696152 0.028131586 -0.029496606 -0.17131792 -0.0770652 0.0847008
0.04856693 0.055667084 0.035444017 0.05972186 0.04577932 -0.039009184 0.08133375 0.050310586
0.10852136 0.10925137 0.013080074 0.031119073 -0.047204144 -0.07878663 0.032377362 0.07164934
0.07594273 0.077094235 0.018340379 -0.0030390688 0.062451545 -0.004257416 -0.0010945441 -0.024979426
-0.05660636 -0.008689877 -0.056917902 0.013561924 0.2208266 -0.090086214 -0.048365004 0.026157692
-0.027022429 -0.03676624 -0.02563967 0.10462634 0.27096736 -0.026008286 -0.034161214 0.08766875
-0.09149981 -0.021492194 -0.056575313 0.046291128 -0.079180226 -0.05546012 -0.037817206 0.07870656
0.017158676 0.13845553 -0.025858022 0.05333452 0.0746999 -0.068391606 0.038232516 0.031767048
-0.05802137 0.1355303 0.014283361 0.051665407 0.12980549 -0.094270326 0.03135719 0.06125242
0.0069207125 0.12065508 -0.09356729 0.08072144 0.038124796 -0.14752948 -0.012952113 0.07729066
0.06913059 0.11805083 -0.017930165 0.052629065 0.07464385 0.08317967 -0.0050889947 0.055213097
0.093571395 0.123425424 -0.0034713054 0.046181362 0.039524514 0.13103966 -0.014131914 0.02259041
0.025987415 0.0995061 -0.07625292 -0.02686529 -0.0058707986 0.07565562 -0.03956428 -0.016069701
0.018446498 -0.10833463 -0.0015641229 0.025405336 0.2658898 -0.078197286 0.04670727 0.097851574
0.07348628 0.010759449 0.034206323 0.06948279 0.16851927 -0.07895171 0.020024085 0.04814714
-0.0019287519 -0.07033365 0.022263544 -0.032468922 0.13743518 -0.029849026 0.010509733 0.0011734335
0.06447537 -0.060258783 0.0234707 0.07577814 -0.25138998 0.14567152 0.0021950074 0.0111712655
0.03339676 0.010976296 -0.09130797 -0.040613867 -0.22303876 0.1276804 -0.055218708 0.034509145
0.102653086 0.008248998 -0.053175863 -0.010509345 -0.11036394 0.075455345 -0.06891545 -0.017330544
-0.034382433 -0.20255135 0.062624745 -0.07648051 -0.12025267 0.017655822 0.08703825 -0.08131157
-0.011540424 -0.16701417 0.033504553 -0.08905133 -0.12244012 0.03741796 0.02822858 -0.0615616
-0.021845626 -0.21518975 -0.06177609 -0.08754257 -0.16014057 0.01842555 -0.061866213 -0.052528713
-0.014778815 0.022298878 -0.0027253337 0.099615596 0.15765572 -0.041448288 0.055768266 0.08629914
0.06219055 0.018951107 0.021892982 0.021560226 0.084306024 -0.027858099 0.07093546 -0.027032424
-0.013007003 -0.0010169309 0.03574723 -0.03740333 0.1392224 0.027461257 0.04448601 -0.035173703
0.092181325 0.115744 0.04027499 0.07616082 0.022202201 -0.17897138 -0.006182921 0.05514487
-0.08740704 -0.02300416 -0.022132898 0.03494739 0.03165927 -0.0646928 -0.030412406 0.0049935007
-0.064992934 0.012279422 -0.0022806968 0.0068578 -0.05401985 -0.13993306 -0.019441748 0.02182666
0.046071883 0.06508247 -0.014065933 0.05467697 -0.009479139 0.123159364 0.021956293 0.113565825
0.11108275 0.1481277 -0.09099099 -0.027078856 -0.074779235 0.05360786 -0.07497617 0.030880207
00000000: 0051 033d a5ec f13d 14e7 05bd 7f1c ce3d
00000010: 0ec4 d23d bcfc 9dbd a3b9 3e3d 6b49 6a3c
00000020: 6f77 13bd 97b4 043e f712 1a3d b872 a83d
00000030: a1bb d33d ca86 9bbd 584e 643c 7e13 b73d
00000040: 37de a7bd 7323 bd3d 85f7 90bc 3674 e63c
00000050: dea2 f1bc f76d 2fbe 5cd4 9dbd 9d77 ad3d
00000060: 1eee 463d 2b03 643d bf2d 113d e99e 743d
00000070: 1983 3b3d 18c8 1fbd 4f92 a63d 7912 4e3d
00000080: 7240 de3d 2fbf df3d cf4d 563c 6ded fe3c
00000090: 2259 41bd e25a a1bd 209e 043d e4bc 923d
000000a0: dd87 9b3d 95e3 9d3d 903e 963c 1d2b 47bb
000000b0: 31cd 7f3d cb81 8bbb ce76 8fba a7a1 ccbc
000000c0: 12dc 67bd fc5f 0ebc bf22 69bd d532 5e3c
000000d0: 5e20 623e 1f7f b8bd 621a 46bd a848 d63c
000000e0: 245e ddbc 3298 16bd 490a d2bc 5646 d63d
000000f0: 3cbc 8a3e 540f d5bc a1ec 0bbd ac8b b33d
00000100: 4164 bbbd 6610 b0bc 84bb 67bd c49b 3d3d
00000110: 3e29 a2bd 272a 63bd 37e6 1abd e830 a13d
00000120: 5a90 8c3c 49c7 0d3e 34d4 d3bc 4c75 5a3d
00000130: 43fc 983d e610 8cbd b399 1c3d 2a1e 023d
00000140: d1a7 6dbd 74c8 0a3e c204 6a3c 1b9f 533d
00000150: bbeb 043e cd10 c1bd 6670 003d d1e3 7a3d
00000160: 25c7 e23b 031a f73d 35a0 bfbd 4851 a53d
00000170: bf28 1c3d f811 17be 1935 54bc 914a 9e3d
00000180: 5794 8d3d a2c4 f13d 48e2 92bc 9391 573d
00000190: e0de 983d 1a5a aa3d 95c1 a6bb 2127 623d
000001a0: 5ca2 bf3d 78c6 fc3d d77e 63bb ab28 3d3d
000001b0: 75e4 213d 432f 063e 8b89 67bc 860f b93c
000001c0: 8fe3 d43c dbc9 cb3d 7e2a 9cbd 9914 dcbc
000001d0: d45f c0bb 55f1 9a3d 280e 22bd 9ba4 83bc
000001e0: 1c1d 973c 8cde ddbd 4103 cdba da1e d03c
000001f0: b522 883e e625 a0bd 1f50 3f3d 6866 c83d
00000200: fa7f 963d 6648 303c ee1b 0c3d fe4c 8e3d
00000210: 5190 2c3e 6fb1 a1bd 8d09 a43c ef35 453d
00000220: 2dce fcba 170b 90bd 0962 b63c 22fe 04bd
00000230: cfbb 0c3e f285 f4bc 0431 2c3c e5cd 993a
00000240: aa0b 843d ead1 76bd a045 c03c 9231 9b3d
00000250: 30b6 80be ea2a 153e 1dda 0f3b af07 373c
00000260: 0acb 083d ecd5 333c acff babd ba5a 26bd
00000270: 4664 64be a7be 023e 032d 62bd 7659 0d3d
00000280: c83b d23d ce26 073c efce 59bd 632f 2cbc
00000290: 7d06 e2bd 5588 9a3d 8b23 8dbd c9f8 8dbc
000002a0: 98d4 0cbd 9f69 4fbe 6741 803d d0a1 9cbd
000002b0: 0847 f6bd f1a2 903c 1c41 b23d ae86 a6bd
000002c0: 0c14 3dbc c305 2bbe 123c 093d 8b60 b6bd
000002d0: e3c1 fabd 9343 193d 9f3f e73c 0428 7cbd
000002e0: 99f5 b2bc b45a 5cbe ed08 7dbd 8549 b3bd
000002f0: e4fb 23be 2ef1 963c 6d67 7dbd 5928 57bd
00000300: d822 72bc 23ac b63c 839b 32bb 4303 cc3d
00000310: 8070 213e aec5 29bd 446d 643d 9abd b03d
00000320: 85bb 7e3d 5a3f 9b3c e958 b33c 129f b03c
00000330: a3a8 ac3d ab36 e4bc 9c46 913d 1a73 ddbc
00000340: 531b 55bc 8a4a 85ba b06b 123d 3c34 19bd
00000350: 5190 0e3e 6ef6 e03c f636 363d 4d12 10bd
00000360: 90c9 bc3d 310b ed3d 63f7 243d 34fa 9b3d
00000370: 64e1 b53c 4644 37be 1a9a cabb 96df 613d
00000380: 7602 b3bd 3873 bcbc 0d50 b5bc ff24 0f3d
00000390: 27ad 013d a97d 84bd 7023 f9bc 85a0 a33b
000003a0: 041b 85bd a12f 493c be77 15bb 65b7 e03b
000003b0: eb43 5dbd 9d4a 0fbe 4d44 9fbc d3cd b23c
000003c0: dfb5 3c3d f549 853d cd74 66bc f5f4 5f3d
000003d0: 644e 1bbc fa3a fc3d afdd b33c 3395 e83d
000003e0: 5a7f e33d caae 173e 7c59 babd 7ad4 ddbc
000003f0: db25 99bd ea93 5b3d 1b8d 99bd 7df8 fc3c

layers.0.bias f4 [512]
0.17985564 0.10763547 0.08392899 0.16120327 0.20958239 -0.046134774 -0.13663708 0.1574031
0.047086135 0.06568617 -0.0058781453 0.18976149 0.18350081 0.06221706 0.10523257 0.1261398
-0.19971196 -0.1548922 0.16250785 0.11459882 0.059859954 0.076995775 0.021171056 -0.0056773815
0.17935333 0.014166151 0.031725094 -0.16499655 -0.026926853 0.06121821 0.039924406 -0.12397024
0.20307764 0.18575697 0.13481247 0.02967968 0.031925853 0.07423468 -0.06375802 0.03471966
-0.18101229 0.03124019 0.04509197 -0.17141938 -0.07618166 0.21514331 0.0013294051 0.15108232
0.006126217 0.19269605 -0.07321077 -0.027743295 -0.108714305 0.07166454 0.1410129 0.14388724
0.03218805 -0.036399473 0.03757725 0.1207336 0.16097488 0.20523445 -0.06342365 0.1272583
0.120100155 0.073457986 -0.020801617 0.08980872 -0.024740882 0.18610677 -0.107936196 -0.04050767
-0.03294628 0.12237835 0.037118997 0.17477849 0.09828915 0.029212128 0.051192015 0.026765458
-0.19022831 0.038613327 -0.13719779 0.05444791 0.09351988 0.08114353 -0.11282917 0.0006298584
0.0091544185 0.23523358 0.14158449 0.063988216 0.21359724 0.09610811 0.11744697 -0.049438816
0.04335757 0.027209617 0.12482826 0.011123889 -0.08372293 0.005309274 -0.1523117 0.22475182
0.18302226 -0.07655258 0.039970897 0.22209522 0.21819927 0.1046095 -0.05352296 0.09202356
0.18532701 0.11652322 0.058851376 0.07701221 0.014655596 0.15554953 0.10102709 -0.1612706
0.0016196658 0.1696642 0.053099416 -0.057182748 0.04280634 -0.18465419 0.007899261 -0.06526344
-0.14890586 0.01352668 0.11485948 -0.059187893 0.19409008 0.027960572 0.12771077 -0.18218154
0.13335934 -0.0013275377 -0.009857537 0.0044770227 -0.14116439 0.07977656 0.13670836 0.019768648
-0.028267356 0.112328604 0.0018242446 0.13750573 0.01712516 0.09744036 -0.03505086 -0.18660621
0.025750073 -0.17933616 0.01709373 0.21770594 0.07344289 -0.072004244 0.11346317 0.22603461
0.19769943 0.11412907 -0.18013944 0.042461537 -0.20387809 0.016577695 -0.015016998 -0.100080095
0.06891331 0.19129711 0.16730058 0.07501578 0.049635444 -0.0050229323 -0.024176475 0.19113779
-0.10851213 0.10526785 -0.012495199 -0.06448466 -0.015671596 0.11558753 0.10158537 -0.046296235
0.023679767 0.038357493 0.11738009 0.16834177 0.22802363 0.042899065 0.10087618 0.057974346
-0.024856674 0.05167515 0.08988968 0.14003426 0.21286896 -0.06686055 0.12648194 -0.16614553
0.18252456 0.016233671 -0.02591709 -0.058877684 -0.056042783 0.06973271 0.021672769 0.17800915
0.2043005 0.1559635 0.06131973 0.13173825 0.23370966 0.13735111 -0.16342156 -0.07000413
0.055616837 -0.077211305 0.099920675 0.015473182 -0.027307248 -0.1274144 0.054960355 0.028232692
0.15531972 -0.13313602 -0.06516269 -0.15055335 0.16458236 0.22165744 -0.010090478 0.079076245
0.18769874 0.043783817 0.14229536 -0.04032741 0.10906868 0.06427911 0.12551127 0.03674134
0.064080276 -0.0064775106 0.18229577 -0.022960825 -0.13441163 0.26040673 0.041563123 -0.05504169
-0.10866909 0.22986649 -0.057834093 -0.123933375 0.111480705 0.065054044 0.11054852 -0.046004474
00000000: 142c 383e fc6f dc3d f6e2 ab3d 7812 253e
00000010: c49c 563e d1f7 3cbd 97ea 0bbe 472e 213e
00000020: 64dd 403d 7886 863d 759d c0bb d650 423e
00000030: a3e7 3b3e 51d7 7e3d 2c84 d73d cb2a 013e
00000040: 4b81 4cbe 109c 1ebe 7568 263e c9b2 ea3d
00000050: b62f 753d f6af 9d3d ec6e ad3c 5409 babb
00000060: 66a8 373e 2519 683c 2cf2 013d dbf4 28be
00000070: b495 dcbc f2bf 7a3d c687 233d 1ce4 fdbd
00000080: 96f3 4f3e 1337 3e3e 480c 0a3e cd22 f33c
00000090: afc4 023d 5a08 983d 9193 82bd 3436 0e3d
000000a0: 495b 39be 6deb ff3c 5cb2 383d 9088 2fbe
000000b0: 2105 9cbd 874e 5c3e 6f3f ae3a 53b5 1a3e
000000c0: 6fbe c83b 1d52 453e 87ef 95bd e845 e3bc
000000d0: 9ba5 debd dcc4 923d b065 103e 2d57 133e
000000e0: 9ed7 033d 9d17 15bd 9aea 193d 2d43 f73d
000000f0: 99d6 243e fb28 523e 42e4 81bd 0050 023e
00000100: 12f7 f53d 2471 963d 2768 aabc a2ed b73d
00000110: 64ad cabc c692 3e3e a70d ddbd 5feb 25bd
00000120: aef2 06bd 80a1 fa3d 170a 183d 22f9 323e
00000130: d24b c93d 464e ef3c b8ae 513d 3c43 db3c
00000140: 36cb 42be 0229 1e3d 947d 0cbe c604 5f3d
00000150: 5a87 bf3d 942e a63d fb12 e7bd 151d 253a
00000160: 6afc 153c 12e1 703e 86fb 103e 410c 833d
00000170: 3cb9 5a3e 54d4 c43d 0988 f03d 5b80 4abd
00000180: b597 313d b4e6 de3c f5a5 ff3d f940 363c
00000190: ed76 abbd 6bf9 ad3b 99f7 1bbe 5725 663e
000001a0: 306a 3b3e 99c7 9cbd 86b8 233d ee6c 633e
000001b0: a16f 5f3e 813d d63d e43a 5bbd d976 bc3d
000001c0: 5dc6 3d3e baa3 ee3d 240e 713d 94b8 9d3d
000001d0: 061e 703c 6048 1f3e 4ae7 ce3d 1f24 25be
000001e0: f74a d43a 74bc 2d3e c67e 593d 7538 6abd
000001f0: b355 2f3d fd15 3dbe e76b 013c d7a8 85bd
00000200: c77a 18be 029f 5d3c 723b eb3d 016f 72bd
00000210: 8dbf 463e 920d e53c 9dc6 023e cc8d 3abe
00000220: 5a8f 083e c600 aeba 8281 21bc fdb3 923b
00000230: 668d 10be e561 a33d 47fd 0b3e dcf1 a13c
00000240: f190 e7bc 8a0c e63d 7e1b ef3a 4dce 0c3e
00000250: 104a 8c3c d08e c73d 7e91 0fbd b315 3fbe
00000260: d1f1 d23c e6a3 37be 2608 8c3c 4eee 5e3e
00000270: 3a69 963d f676 93bd 615f e83d 9e75 673e
00000280: b871 4a3e 80bc e93d 7976 38be 26ec 2d3d
00000290: 6bc5 50be f2cd 873c db09 76bc cbf6 ccbd
000002a0: 6c22 8d3d 64e3 433e d850 2b3e e0a1 993d
000002b0: 894e 4b3d 6997 a4bb be0d c6bc a0b9 433e
000002c0: 9c3b debd ac96 d73d aab8 4cbc 8910 84bd
000002d0: b861 80bc 28b9 ec3d fe0b d03d 1fa1 3dbd
000002e0: 12fc c13c bf1c 1d3d f964 f03d c961 2c3e
000002f0: 077f 693e eeb6 2f3d 2c98 ce3d 8276 6d3d
00000300: 39a0 cbbc 52a9 533d 1518 b83d 2465 0f3e
00000310: 52fa 593e 2fee 88bd 7b84 013e 0e22 2abe
00000320: b8e7 3a3e 7afc 843c 1450 d4bc ba29 71bd
00000330: 1e8d 65bd 06d0 8e3d 178b b13c 0848 363e
00000340: 2634 513e e5b4 1f3e 662a 7b3d 64e6 063e
00000350: 9651 6f3e c5a5 0c3e fb57 27be 535e 8fbd
00000360: 7bce 633d f620 9ebd 36a3 cc3d 3b83 7d3c
00000370: 73b3 dfbc ec78 02be 1c1e 613d 3f48 e73c
00000380: 220c 1f3e cf54 08be 0474 85bd a82a 1abe
00000390: 4788 283e 2bfa 623e 8852 25bc baf2 a13d
000003a0: 1934 403e a956 333d e0b5 113e 5b2e 25bd
000003b0: 665f df3d c4a4 833d 0786 003e 167e 163d
000003c0: 853c 833d 4c41 d4bb beab 3a3e 5718 bcbc
000003d0: 34a3 09be 0854 853e 183e 2a3d 6573 61bd
000003e0: e68d debd 1f62 6b3e 71e3 6cbd c8d0 fdbd
000003f0: ff4f e43d 0e3b 853d 4367 e23d 306f 3cbd

layers.1.weight f4 [256, 512]
0.0085937325 0.025953537 0.05849983 0.031401545 0.050807018 0.06645084 -0.10433042 -0.11728556
0.002472622 -0.023623027 0.018429382 -0.054869384 0.02251814 -0.03285901 -0.11852563 0.039122317
-0.04654644 -0.08576043 -0.048387993 0.027650913 0.013641326 -0.02245614 0.01322041 0.02535645
-0.001934988 -0.042266935 -0.012558601 -0.03819738 -0.077512205 0.036453355 -0.08142412 -0.055209015
0.0046689133 -0.0035200187 -0.0028641012 -0.011101246 -0.06888047 -0.029356569 0.08852333 -0.05794942
0.011858716 -0.0024289838 -0.099315986 -0.051160775 0.058219176 0.08936929 -0.064950116 -0.021121997
0.1269288 0.039226945 -0.054436393 -0.13644075 0.032796342 0.0006632169 -0.02674119 0.057445098
0.054666158 0.04307126 0.0072959973 0.0742848 0.09834181 0.033913355 -0.038590055 0.05028379
0.09877393 -0.09680668 -4.2049185e-05 0.05248503 0.026129074 -0.0033933343 -0.036580723 -0.12515408
-0.04551014 0.07093605 0.025010316 -0.00019018808 0.01891065 0.025686583 -0.12973009 -0.02275792
-0.041463796 -0.028668746 0.047837935 -0.012624542 -0.032294735 0.024265802 -0.028315196 0.031587683
-0.030926418 0.04008038 -0.0027354253 -0.032026898 0.018564073 0.025977995 0.09688714 -0.05192286
-0.039106473 0.03638451 0.10112321 0.02307849 -0.010324079 0.059648924 -0.10275362 -0.05244776
0.0072471313 0.041596312 0.076383665 -0.01103724 0.023674529 -0.06760395 0.026628053 -0.0019115406
-0.04407373 -0.005673369 -0.082701474 0.116880104 -0.056939647 0.07479432 -0.026624212 -0.012039779
0.09000538 0.020176658 0.0160995 0.05388328 -0.05354115 0.03839957 -0.14974514 -0.18155746
0.01574799 -0.06637363 0.0016982334 0.032607537 0.08347997 -0.013820816 -0.052537914 0.01272303
-0.009762226 -0.086734936 -0.042025097 -0.016989686 -0.034561392 0.06450069 -0.023723545 0.07182545
-0.017010765 0.01618834 -0.0091981655 0.020997362 0.010977378 -0.04933662 -0.10396971 -0.031462163
0.032271426 -0.08549464 0.043158222 -0.033925813 -0.08892844 -0.06381899 0.0011798788 0.0020074644
-0.007986733 0.031965706 -0.058509197 0.12557386 0.02707198 0.01978902 0.046614207 -0.11138773
0.06061183 0.035369333 -0.051492695 0.021821082 -0.065280505 0.11680868 0.020116271 -0.03459818
0.057872497 -0.008132039 -0.034652434 -0.068992496 -0.16452102 0.008409573 -0.086265594 -0.054811623
0.047052797 0.014129196 -0.024889762 0.049614467 0.02341956 -0.07063733 -0.07959521 -0.03235488
-0.09039009 -0.083536394 0.15890846 -0.11223498 -0.0046654996 0.03780548 0.0658533 -0.08545411
-0.002395226 -0.14457414 -0.05443664 0.018717943 0.06273403 -0.04756036 -0.10886658 0.027628178
0.073720574 -0.064704195 -0.051307093 0.019194907 0.08689672 0.03682486 -0.074480176 -0.008001261
-0.058219697 -0.018537803 0.018588353 0.02639186 0.050430644 -0.06384022 0.0050460524 -0.020816322
-0.06056834 -0.026008058 0.06245979 -0.039500948 0.04855991 -0.027570426 0.13347235 -0.052377954
0.026059156 -0.02719807 -0.061572105 -0.015477911 -0.14014453 0.07098279 -0.031359084 -0.071170405
-0.03006371 0.022146005 -0.024636423 -0.10968627 -0.051970124 0.015510865 0.09142272 0.07087008
-0.08851048 -0.056462467 -0.05849909 -0.11328962 0.017130671 0.03526282 -0.008325079 -0.061396886
00000000: bacc 0c3c 839c d43c 859d 6f3d e89e 003d
00000010: 051b 503d 6117 883d 30ab d5bd 6933 f0bd
00000020: b70b 223b 1485 c1bc 37f9 963c b8be 60bd
00000030: f677 b83c 2b97 06bd 91bd f2bd b93e 203d
00000040: 7ba7 3ebd 2aa3 afbd 7d32 46bd 2b84 e23c
00000050: de7f 5f3c f0f5 b7bc 6b9a 583c 54b8 cf3c
00000060: 6c9f fdba 1820 2dbd 97c2 4dbc db74 1cbd
00000070: b8be 9ebd 1d50 153d b0c1 a6bd d922 62bd
00000080: affd 983b 1db0 66bb a5b3 3bbb 00e2 35bc
00000090: 3411 8dbd 307d f0bc b84b b53d 5f5c 6dbd
000000a0: 0f4b 423c 962f 1fbb 2e66 cbbd f68d 51bd
000000b0: 3b77 6e3d 3f07 b73d 9104 85bd 0a08 adbc
000000c0: a0f9 013e 6fac 203d b2f8 5ebd 20b7 0bbe
000000d0: 7555 063d bcdb 2d3a 5710 dbbc 8d4b 6b3d
000000e0: 9fe9 5f3d 7d6b 303d 4313 ef3b a122 983d
000000f0: 6e67 c93d bbe8 0a3d 9b10 1ebd 60f6 4d3d
00000100: fc49 ca3d 9542 c6bd f85d 30b8 8bfa 563d
00000110: a40c d63c b462 5ebb abd5 15bd 6428 00be
00000120: d768 3abd eb46 913d 6fe2 cc3c 396d 47b9
00000130: 82ea 9a3c ab6c d23c f7d7 04be d16e babc
00000140: f1d5 29bd b8da eabc b6f1 433d 2bd7 4ebc
00000150: 7c47 04bd 13c9 c63c 45f5 e7bc 1662 013d
00000160: 6659 fdbc 532b 243d d244 33bb a32e 03bd
00000170: af13 983c cecf d43c c46c c63d 11ad 54bd
00000180: 1c2e 20bd ed07 153d af19 cf3d 1a0f bd3c
00000190: 5326 29bc 6e52 743d 7d70 d2bd 76d3 56bd
000001a0: 5879 ed3b e560 2a3d 0a6f 9c3d 8ad5 34bc
000001b0: 16f1 c13c f173 8abd 1323 da3c a98c faba
000001c0: a886 34bd abe7 b9bb 645f a9bd d65e ef3d
000001d0: 8c39 69bd c42d 993d 051b dabc 7e42 45bc
000001e0: be54 b83d 8549 a53c 19e3 833c b7b4 5c3d
000001f0: f74d 5bbd de48 1d3d ca56 19be 33ea 39be
00000200: ee01 813c e6ee 87bd 4297 de3a 7b8f 053d
00000210: 8cf7 aa3d b470 62bc ff31 57bd 4174 503c
00000220: bef1 1fbc 16a2 b1bd 8222 2cbd f42d 8bbc
00000230: 3f90 0dbd f018 843d e157 c2bc 3919 933d
00000240: 295a 8bbc 699d 843c e7b3 16bc a902 ac3c
00000250: 76da 333c 3215 4abd 12ee d4bd 78de 00bd
00000260: 0b2f 043d d017 afbd adc6 303d cbf5 0abd
00000270: 1d20 b6bd 88b3 82bd 2aa6 9a3a aa8f 033b
00000280: c9da 02bc 79ee 023d 57a7 6fbd 6f96 003e
00000290: 0fc6 dd3c 951c a23c 8aee 3e3d 401f e4bd
000002a0: 1c44 783d 6fdf 103d 01ea 52bd 20c2 b23c
000002b0: c9b1 85bd 6439 ef3d e1ca a43c d2b6 0dbd
000002c0: b60b 6d3d 3e3c 05bc b6ef 0dbd f04b 8dbd
000002d0: 3378 28be 4ec8 093c 04ac b0bd 2782 60bd
000002e0: 6fba 403d 257e 673c 9de5 cbbc 8a38 4b3d
000002f0: 61da bf3c 4eaa 90bd d002 a3bd 8d86 04bd
00000300: 711e b9bd 2115 abbd e6b8 223e 74db e5bd
00000310: 0ce1 98bb ebd9 1a3d 18de 863d 9002 afbd
00000320: 39f9 1cbb 3e0b 14be f4f8 5ebd 5f56 993c
00000330: b37a 803d a7ce 42bd 71f5 debd 7d54 e23c
00000340: d0fa 963d a283 84bd 6327 52bd a33e 9d3c
00000350: e8f6 b13d aad5 163d 1089 98bd b917 03bc
00000360: c777 6ebd 97dc 97bc 9a46 983c be33 d83c
00000370: 5d90 4e3d a9be 82bd 5b59 a53b fe86 aabc
00000380: 8216 78bd da0e d5bc d6d5 7f3d bfcb 21bd
00000390: c2e6 463d 60db e1bc faac 083e 448a 56bd
000003a0: 037a d53c 7dce debc 0833 7cbd 1097 7dbc
000003b0: 0c82 0fbe 6d5f 913d 6272 00bd cac1 91bd
000003c0: 2b48 f6bc 8a6b b53c 53d2 c9bc 32a3 e0bd
000003d0: a0de 54bd 4821 7e3c d63b bb3d 5524 913d
000003e0: fc44 b5bd 3045 67bd be9c 6fbd 6304 e8bd
000003f0: 9f55 8c3c bf6f 103d ea65 08bc 4d7b 7bbd

layers.1.bias f4 [256]
0.028928697 -0.029093266 -0.0505873 -0.031090457 0.04470439 0.035798542 0.023369556 -0.051607266
0.02605074 0.015856301 0.021838946 -0.040428326 0.011335871 0.04703883 0.04059898 -0.0029018233
0.0062681143 -0.0017666956 0.00052623346 0.1320333 -0.019215014 0.051393073 0.015942944 0.019159025
0.10201613 -0.0150032295 -0.018783808 -0.0015989373 -0.00945354 0.014457988 0.0005589885 0.019302754
0.115492925 0.04335906 -0.009577356 -0.0016276804 0.02999549 0.07688108 0.045300283 0.00676819
-0.0070733773 0.023490574 -0.009056324 -0.046040364 0.04665388 -0.0033960696 -0.039017413 0.04292626
0.0100681735 0.056325737 -0.010143838 0.030194236 0.009565091 0.007653238 0.019195491 0.0064526233
0.01122065 0.044869892 0.0028394044 0.06843214 0.05933097 0.024752889 -0.0038208095 0.009397572
0.03506928 0.02030703 0.049512446 -0.0018434811 0.08252734 0.044443615 0.015361196 0.006910369
0.065421656 -0.0014119693 0.006709379 -0.025317464 -0.047042202 -0.01386063 -0.03657323 0.040918738
0.04671023 0.04720952 0.07588741 0.020725295 -0.010680575 0.02081132 -0.0018276455 0.032157388
-0.0083893025 0.05894251 0.08010333 0.09590997 0.0061993035 0.028352277 0.022431713 -0.004154797
-0.029249458 -0.041534454 0.017024204 -0.0001122397 0.010723359 -0.027765337 0.09058272 0.014714981
0.031060204 0.0598738 -0.01028813 -2.3877e-05 -0.035064586 0.025986413 -0.007378085 0.088039346
0.024433639 0.060851958 0.007737581 -0.0017597311 -0.034928873 0.0027212852 -0.030201532 0.024539905
0.0023067307 -0.02289403 -0.009299756 -0.002543987 -0.025023945 0.027149398 0.06277222 0.038553353
-0.004006085 0.05992191 0.053556804 -0.007891043 0.030214863 0.040600657 0.04126763 0.019666081
0.091389604 -0.029878117 -0.0039893156 0.03254446 0.0077371993 0.10790571 -0.03451706 0.024323534
0.0050625294 0.0556366 0.08526485 0.04601695 -0.011966014 0.03654754 0.048600256 -0.030270807
0.016263139 -0.038927212 -0.03000037 0.011383071 0.0038881782 0.07744014 0.0071094595 -0.012378825
-0.0066581233 0.013921756 -0.013919472 -0.03774943 0.018736346 0.00928164 -0.020144172 -0.012175862
0.036045603 0.011062922 -0.013716274 0.086178906 -0.00015897122 0.034231693 0.02862668 0.01878321
0.055297457 0.033898298 -0.0070082135 -0.00047556043 0.10101189 0.038010154 0.017461333 0.01157803
0.003524088 -0.005114738 0.030463938 0.003598233 -0.03172692 0.015565358 -0.008763857 -0.03220128
0.1310429 -0.034690287 0.041627858 0.0069910027 0.026704883 0.050655175 0.02527686 -0.04002278
0.03394083 0.018943422 -0.0072020935 0.037741423 -0.026781457 0.032112394 -0.027060634 0.09620591
0.023457352 0.0067339726 0.009369837 -0.011131441 0.01350027 -0.047830712 0.041011665 0.022983305
0.03859423 0.12298481 -0.023077397 0.049563542 0.06631835 0.12614344 0.040707 -0.021387808
-0.038134795 0.019571068 -0.023101253 -0.008800958 0.012065287 0.015037061 -0.00223925 0.012878191
0.046097893 0.050456326 0.017934604 0.015006276 -0.0038940343 0.017967576 -0.016948175 -0.017414927
0.056691125 0.037774403 0.048273038 -0.032062486 0.06488705 0.014198498 -0.055594552 0.028654976
0.059121486 -0.016156549 -0.024455085 0.03311961 -0.025438527 0.059770413 -0.017565157 0.026730938
00000000: e0fb ec3c 0055 eebc a134 4fbd 6ab1 febc
00000010: f31b 373d 7ea1 123d 8371 bf3c 2462 53bd
00000020: 5d68 d53c 13e5 813c 97e7 b23c 2c98 25bd
00000030: 17ba 393c caab 403d 1e4b 263d 842c 3ebb
00000040: c164 cd3b 7890 e7ba eef2 093a bd33 073e
00000050: ce68 9dbc 8b81 523d c79a 823c 63f3 9c3c
00000060: d5ed d03d 1bd0 75bc 80e0 99bc 6f93 d1ba
00000070: 05e3 1abc 32e1 6c3c 1589 123a cf20 9e3c
00000080: 8e87 ec3d 4599 313d 58ea 1cbc e457 d5ba
00000090: 1ab9 f53c d473 9d3d ca8c 393d b1c7 dd3b
000000a0: cac7 e7bb 4e6f c03c fa60 14bc d294 3cbd
000000b0: 2418 3f3d 9890 5ebb b9d0 1fbd 72d3 2f3d
000000c0: fbf4 243c d1b5 663d 5732 26bc e759 f73c
000000d0: e6b6 1c3c 03c8 fa3b dd3f 9d3c 8770 d33b
000000e0: d1d6 373c 7ec9 373d 4d15 3a3b 2626 8c3d
000000f0: 0805 733d 92c6 ca3c 8c66 7abb 46f8 193c
00000100: cea4 0f3d ee5a a63c 90cd 4a3d f6a0 f1ba
00000110: 1804 a93d 820a 363d 87ad 7b3c 6070 e23b
00000120: cafb 853d d411 b9ba 5ada db3b 9266 cfbc
00000130: 53af 40bd b217 63bc d0cd 15bd 689a 273d
00000140: 3a53 3f3d c55e 413d dc6a 9b3d 18c8 a93c
00000150: 94fd 2ebc 807c aa3c 9b8d efba 77b7 033d
00000160: 4973 09bc b46d 713d 370d a43d 726c c43d
00000170: 8723 cb3b 0943 e83c b6c2 b73c f724 88bb
00000180: 8f9c efbc 0820 2abd 5876 8b3c 3b62 ebb8
00000190: 07b1 2f3c 2274 e3bc 6f83 b93d 1b17 713c
000001a0: f871 fe3c 3b3e 753d 8b8f 28bc 784b c8b7
000001b0: e29f 0fbd 75e1 d43c ddc3 f1bb f94d b43d
000001c0: 0e29 c83c e73f 793d 898b fd3b c7a6 e6ba
000001d0: 9411 0fbd 9757 323b 3469 f7bc e907 c93c
000001e0: 852c 173b 438c bbbc 015e 18bc 05b9 26bb
000001f0: 04ff ccbc 6a68 de3c b98e 803d 1fea 1d3d
00000200: 7a45 83bb ad70 753d 615e 5b3d 6f49 01bc
00000210: 2985 f73c e04c 263d 3f08 293d c31a a13c
00000220: 792a bb3d f4c2 f4bc ceb8 82bb 574d 053d
00000230: 5588 fd3b abfd dc3d c361 0dbd 2642 c73c
00000240: 93e3 a53b 34e3 633d 569f ae3d 457c 3c3d
00000250: 1a0d 44bc e0b2 153d 1011 473d 7cfa f7bc
00000260: 463a 853c 2472 1fbd 56c3 f5bc 0f80 3a3c
00000270: ced0 7e3b f098 9e3d 78f6 e83b 8ed0 4abc
00000280: 632c dabb 1418 643c 7f0e 64bc 259f 1abd
00000290: f77c 993c 0512 183c 6405 a5bc 447d 47bc
000002a0: 8ea4 133d 4241 353c 39ba 60bc 917e b03d
000002b0: 83b1 26b9 8836 0c3d 8082 ea3c 3fdf 993c
000002c0: 967f 623d f1d8 0a3d 28a5 e5bb a454 f9b9
000002d0: 52df ce3d 89b0 1b3d 120b 8f3c c7b1 3d3c
000002e0: 63f4 663b 8899 a7bb 828f f93c 55d0 6b3b
000002f0: 16f4 01bd d805 7f3c 4896 0fbc 7de5 03bd
00000300: 1c30 063e 6717 0ebd f981 2a3d c814 e53b
00000310: 33c4 da3c cd7b 4f3d 6b11 cf3c edee 23bd
00000320: 8a05 0b3d 3c2f 9b3c 8aff ebbb c096 1a3d
00000330: c964 dbbc 4988 033d 43ae ddbc 9b07 c53d
00000340: a229 c03c a8a8 dc3b f283 193c a660 36bc
00000350: 3d30 5d3c 23ea 43bd d9fb 273d 7c47 bc3c
00000360: fc14 1e3d 76df fb3d cf0c bdbc 2403 4b3d
00000370: ead1 873d bf2b 013e 62bc 263d 7c35 afbc
00000380: 3b33 1cbd 8153 a03c d73e bdbc e531 10bc
00000390: 7bad 453c 015e 763c 62c0 12bb 0cff 523c
000003a0: 25d1 3c3d 4bab 4e3d 97eb 923c e2dc 753c
000003b0: 0e33 7fbb bd30 933c e6d6 8abc c0a9 8ebc
000003c0: f434 683d 55b9 1a3d f3b9 453d f453 03bd
000003d0: 80e3 843d d1a0 683c 1db7 63bd d7bd ea3c
000003e0: 5f29 723d bd5a 84bc 0856 c8bc 6ea8 073d
000003f0: 7564 d0bc d2d1 743d cee4 8fbc d7fa da3c

output.weight f4 [2, 256]
0.027140485 0.013623267 0.047981706 0.0061682216 0.2507368 -0.15303408 -0.09515142 0.047947444
0.030916484 -0.07451506 -0.04850497 0.020929854 0.022967238 -0.19914758 -0.113020726 0.020694258
-0.16677918 0.040607553 0.05389495 0.27825704 -0.061909813 -0.06889203 -0.0823569 -0.4185996
-0.26298168 -0.036989592 -0.051321704 0.040634576 -0.35237744 0.026577765 -0.17276761 -0.06330737
0.31638524 0.0059122657 -0.05511799 0.031752653 -0.04331837 -0.006075874 -0.08159845 -0.02395934
0.025697885 0.25346673 0.039602127 0.035431378 -0.07917569 -0.029680887 -0.06292212 -0.12469418
-0.021658013 -0.12372249 -0.11367885 -0.0409957 0.032184333 -0.07575658 0.030542415 0.09972814
-0.1859587 -0.14518024 -0.017601164 -0.18761957 0.121958464 0.013129893 0.26373842 -0.1599401
-0.030646928 0.24088491 -0.004394209 0.015519831 0.26200536 -0.13689499 -0.0508448 -0.11980159
0.0023012978 0.12771125 0.02821403 0.21275803 0.021135198 0.020871947 0.019334348 -0.0537621
-0.041237865 -0.08876029 0.15765595 -0.023727855 -0.0911688 0.26193407 -0.111926004 -0.11836903
-0.11080233 -0.009735737 -0.019710133 -0.15857369 0.10921229 -0.0517572 -0.11820059 0.14149465
0.027269809 -0.086299464 -0.12075026 -0.1960296 -0.080622226 -0.07129093 -0.22593299 -0.0027491364
0.01583083 -0.12913802 0.14701547 0.022332475 0.018203622 -0.07516717 0.042655688 -0.14271787
-0.08019769 -0.009966111 -0.07118988 -0.03221629 0.0374034 0.022203488 0.028622067 -0.29160476
0.019702027 0.021603381 0.009102236 0.022304194 -0.05849306 -0.053160563 -0.046454474 -0.07469376
0.027013427 -0.02337079 -0.06363784 0.008610913 -0.0076325224 -0.15578294 -0.060259778 -0.032172076
0.002016522 0.015331768 -0.110675156 0.28696227 -0.08325414 0.26430273 0.032457173 0.14158188
0.037639286 -0.058741007 -0.021210525 -0.014579482 0.16266415 0.011852119 0.017301409 0.0170975
-0.027829519 0.03233288 0.018604642 -0.10018358 0.031964257 -0.22538175 0.040827736 0.02116339
-0.09103697 0.020404257 0.017977268 0.022905163 0.038727045 -0.016088763 -0.09039174 0.06880687
-0.101036206 -0.08243304 -0.103915974 0.22382519 -0.123237714 -0.030677699 -0.08669655 -0.03332624
-0.02516307 -0.025470523 -0.06429336 0.025276404 -0.22569607 -0.062164582 0.020805871 0.046138413
0.03461588 0.013317196 0.025224766 -0.025093786 0.019727042 0.015480263 0.05146008 -0.100006886
0.28430173 0.019928142 0.035293743 0.20167872 -0.058041885 0.010024526 -0.04719644 0.033271722
-0.13956593 -0.03107403 0.11378388 0.25832972 -0.13021283 -0.064588696 -0.051515453 -0.195917
-0.024334565 -0.039388664 0.17815343 -0.17383936 -0.32324907 0.033952534 -0.08907722 0.015471176
-0.010859816 0.27506176 -0.38824114 -0.048450563 0.19645755 0.32064292 -0.034403887 0.03409373
0.031614877 -0.0006111466 -0.07039346 -0.084471904 -0.026058737 0.013184832 0.031788047 0.034554172
-0.35732624 -0.0114403535 -0.16825548 0.034767915 -0.04677077 0.22859555 -0.10958217 0.045894727
0.14614695 -0.030967409 0.08962897 0.027746854 -0.027437873 0.031389754 0.042325187 0.27589712
-0.2935591 0.043003377 0.016171947 -0.03154399 -0.0928465 -0.14778721 -0.076329745 0.028233705
00000000: b955 de3c 2034 5f3c 7788 443d cb1e ca3b
00000010: 9360 803e f7b4 1cbe bfde c2bd 8a64 443d
00000020: 9144 fd3c 5a9b 98bd 26ad 46bd 1675 ab3c
00000030: ca25 bc3c 58ed 4bbe 6977 e7bd 0187 a93c
00000040: 29c8 2abe 1b54 263d f3c0 5c3d b577 8e3e
00000050: 2595 7dbd 4417 8dbd bcaa a8bd b052 d6be
00000060: 89a5 86be 6682 17bd b536 52bd 7170 263d
00000070: d16a b4be 9db9 d93c fee9 30be 4ba7 81bd
00000080: 3ffd a13e aebb c13b 67c3 61bd 120f 023d
00000090: 9a6e 31bd 2018 c7bb 171d a7bd 6146 c4bc
000000a0: 5f84 d23c 64c6 813e d735 223d 7e20 113d
000000b0: dd26 a2bd 5525 f3bc 50dd 80bd aa5f ffbd
000000c0: 256c b1bc 3862 fdbd 75d0 e8bd 1beb 27bd
000000d0: b8d3 033d 4426 9bbd 1634 fa3c 443e cc3d
000000e0: f56b 3ebe 21aa 14be 5130 90bc 581f 40be
000000f0: 5cc5 f93d c31e 573c b908 873e 56c7 23be
00000100: 440f fbbc 89aa 763e 4cfd 8fbb e446 7e3c
00000110: 9125 863e 332e 0cbe a342 50bd 895a f5bd
00000120: 5fd1 163b bdc6 023e 1c21 e73c 3edd 593e
00000130: b923 ad3c a5fb aa3c 1163 9e3c a635 5cbd
00000140: 09e9 28bd f4c7 b5bd 9070 213e eb60 c2bc
00000150: b5b6 babd 391c 863e 7639 e5bd 766b f2bd
00000160: 55ec e2bd a482 1fbc 2577 a1bc 2461 22be
00000170: b1aa df3d 5cff 53bd 2713 f2bd f9e3 103e
00000180: ef64 df3c c6bd b0bd ea4b f7bd fcbb 48be
00000190: 441d a5bd fb00 92bd fa5a 67be db2a 34bb
000001a0: a8af 813c c23c 04be 398b 163e 98f2 b63c
000001b0: c31f 953c 3ff1 99bd bbb7 2e3d a224 12be
000001c0: b03e a4bd e648 23bc 00cc 91bd 3af5 03bd
000001d0: 4f34 193d 17e4 b53c d378 ea3c 384d 95be
000001e0: 2566 a13c 93f9 b03c 8b21 153c 49b7 b63c
000001f0: 6b96 6fbd e4be 59bd 0c47 3ebd 0bf9 98bd
00000200: 434b dd3c 1974 bfbc 8e54 82bd c914 0d3c
00000210: 3d1a fabb 9085 1fbe f5d2 76bd dec6 03bd
00000220: a027 043b 1932 7b3c a8a9 e2bd b8ec 923e
00000230: 2681 aabd b052 873e d0f1 043d d7fa 103e
00000240: a72b 1a3d 699a 70bd b2c1 adbc c8de 6ebc
00000250: 6e91 263e 642f 423c afbb 8d3c 0e10 8c3c
00000260: bbfa e3bc 7b6f 043d c368 983c 0c2d cdbd
00000270: f4ec 023d 79ca 66be fc3a 273d d85e ad3c
00000280: 9771 babd d426 a73c 1045 933c 9ca3 bb3c
00000290: 40a0 1e3d 95cc 83bc 4e1f b9bd 9eea 8c3d
000002a0: 12ec cebd a7d2 a8bd e6d1 d4bd 6e32 653e
000002b0: 0e64 fcbd cc4f fbbc f68d b1bd 1881 08bd
000002c0: c822 cebc 8fa7 d0bc 3dac 83bd 7610 cf3c
000002d0: df1c 67be 4aa0 7ebd 1371 aa3c a2fb 3c3d
000002e0: 62c9 0d3d 5e30 5a3c 2ba4 ce3c 7c91 cdbc
000002f0: 9b9a a13c eea0 7d3c cec7 523d 69d0 ccbd
00000300: ff8f 913e 5840 a33c 2c90 103d de84 4e3e
00000310: 54bd 6dbd e93d 243c 0e51 41bd ee47 083d
00000320: 5fea 0ebe f78e febc 8607 e93d cb43 843e
00000330: 8356 05be 1447 84bd de01 53bd 779e 48be
00000340: 4859 c7bc 0256 21bd da6d 363e f202 32be
00000350: e780 a5be d011 0b3d 1e6e b6bd d17a 7d3c
00000360: 5fed 31bc e5d4 8c3e 8bc7 c6be 1974 46bd
00000370: 2b2c 493e 4f2b a43e 17eb 0cbd dea5 0b3d
00000380: 9a7e 013d 5b35 20ba 722a 90bd 9bff acbd
00000390: 2279 d5bc 3205 583c 2f34 023d ad88 0d3d
000003a0: 77f3 b6be 5270 3bbc 2a4b 2cbe cd68 0e3d
000003b0: b592 3fbd f414 6a3e 9e6c e0bd 1cfc 3b3d
000003c0: 8ca7 153e 5daf fdbc 658f b73d 5f4d e33c
000003d0: 64c5 e0bc 8b92 003d 2d5d 2d3d 6342 8d3e
000003e0: 614d 96be 4f24 303d 087b 843c 4534 01bd
000003f0: 4e26 bebd 8855 17be c552 9cbd 5f4a e73c

output.bias f4 [2]
-0.052700732 -0.02027081
00000000: b9dc 57bd f80e a6bc
